{"format": "graph-model", "generatedBy": "2.4.0", "convertedBy": "TensorFlow.js Converter v2.8.2", "signature": {"outputs": {"pred_lbbox/concat_2": {"name": "pred_lbbox/concat_2"}, "pred_sbbox/concat_2": {"name": "pred_sbbox/concat_2"}}}, "modelTopology": {"node": [{"name": "pred_lbbox/strided_slice_4/stack", "op": "Const", "attr": {"value": {"tensor": {"dtype": "DT_INT32", "tensorShape": {"dim": [{"size": "5"}]}}}, "dtype": {"type": "DT_INT32"}}}, {"name": "pred_lbbox/strided_slice_4/stack_1", "op": "Const", "attr": {"dtype": {"type": "DT_INT32"}, "value": {"tensor": {"dtype": "DT_INT32", "tensorShape": {"dim": [{"size": "5"}]}}}}}, {"name": "pred_lbbox/strided_slice_4/stack_2", "op": "Const", "attr": {"value": {"tensor": {"dtype": "DT_INT32", "tensorShape": {"dim": [{"size": "5"}]}}}, "dtype": {"type": "DT_INT32"}}}, {"name": "pred_lbbox/range_1/start", "op": "Const", "attr": {"value": {"tensor": {"dtype": "DT_INT32", "tensorShape": {}}}, "dtype": {"type": "DT_INT32"}}}, {"name": "pred_lbbox/range_1/delta", "op": "Const", "attr": {"value": {"tensor": {"dtype": "DT_INT32", "tensorShape": {}}}, "dtype": {"type": "DT_INT32"}}}, {"name": "pred_lbbox/strided_slice_9/stack", "op": "Const", "attr": {"value": {"tensor": {"dtype": "DT_INT32", "tensorShape": {"dim": [{"size": "2"}]}}}, "dtype": {"type": "DT_INT32"}}}, {"name": "pred_lbbox/strided_slice_9/stack_1", "op": "Const", "attr": {"dtype": {"type": "DT_INT32"}, "value": {"tensor": {"dtype": "DT_INT32", "tensorShape": {"dim": [{"size": "2"}]}}}}}, {"name": "pred_lbbox/strided_slice_9/stack_2", "op": "Const", "attr": {"value": {"tensor": {"dtype": "DT_INT32", "tensorShape": {"dim": [{"size": "2"}]}}}, "dtype": {"type": "DT_INT32"}}}, {"name": "pred_lbbox/Tile_1/multiples/1", "op": "Const", "attr": {"dtype": {"type": "DT_INT32"}, "value": {"tensor": {"dtype": "DT_INT32", "tensorShape": {}}}}}, {"name": "pred_lbbox/strided_slice_10/stack", "op": "Const", "attr": {"dtype": {"type": "DT_INT32"}, "value": {"tensor": {"dtype": "DT_INT32", "tensorShape": {"dim": [{"size": "3"}]}}}}}, {"name": "pred_lbbox/strided_slice_10/stack_1", "op": "Const", "attr": {"dtype": {"type": "DT_INT32"}, "value": {"tensor": {"dtype": "DT_INT32", "tensorShape": {"dim": [{"size": "3"}]}}}}}, {"name": "pred_lbbox/strided_slice_10/stack_2", "op": "Const", "attr": {"dtype": {"type": "DT_INT32"}, "value": {"tensor": {"dtype": "DT_INT32", "tensorShape": {"dim": [{"size": "3"}]}}}}}, {"name": "pred_lbbox/range/start", "op": "Const", "attr": {"dtype": {"type": "DT_INT32"}, "value": {"tensor": {"dtype": "DT_INT32", "tensorShape": {}}}}}, {"name": "pred_lbbox/range/delta", "op": "Const", "attr": {"dtype": {"type": "DT_INT32"}, "value": {"tensor": {"dtype": "DT_INT32", "tensorShape": {}}}}}, {"name": "pred_lbbox/strided_slice_8/stack", "op": "Const", "attr": {"dtype": {"type": "DT_INT32"}, "value": {"tensor": {"dtype": "DT_INT32", "tensorShape": {"dim": [{"size": "2"}]}}}}}, {"name": "pred_lbbox/strided_slice_8/stack_1", "op": "Const", "attr": {"value": {"tensor": {"dtype": "DT_INT32", "tensorShape": {"dim": [{"size": "2"}]}}}, "dtype": {"type": "DT_INT32"}}}, {"name": "pred_lbbox/strided_slice_8/stack_2", "op": "Const", "attr": {"value": {"tensor": {"dtype": "DT_INT32", "tensorShape": {"dim": [{"size": "2"}]}}}, "dtype": {"type": "DT_INT32"}}}, {"name": "pred_lbbox/Tile/multiples/0", "op": "Const", "attr": {"value": {"tensor": {"dtype": "DT_INT32", "tensorShape": {}}}, "dtype": {"type": "DT_INT32"}}}, {"name": "pred_lbbox/strided_slice_11/stack", "op": "Const", "attr": {"dtype": {"type": "DT_INT32"}, "value": {"tensor": {"dtype": "DT_INT32", "tensorShape": {"dim": [{"size": "3"}]}}}}}, {"name": "pred_lbbox/strided_slice_11/stack_1", "op": "Const", "attr": {"value": {"tensor": {"dtype": "DT_INT32", "tensorShape": {"dim": [{"size": "3"}]}}}, "dtype": {"type": "DT_INT32"}}}, {"name": "pred_lbbox/strided_slice_11/stack_2", "op": "Const", "attr": {"value": {"tensor": {"dtype": "DT_INT32", "tensorShape": {"dim": [{"size": "3"}]}}}, "dtype": {"type": "DT_INT32"}}}, {"name": "pred_lbbox/concat/axis", "op": "Const", "attr": {"dtype": {"type": "DT_INT32"}, "value": {"tensor": {"dtype": "DT_INT32", "tensorShape": {}}}}}, {"name": "pred_lbbox/strided_slice_12/stack", "op": "Const", "attr": {"dtype": {"type": "DT_INT32"}, "value": {"tensor": {"dtype": "DT_INT32", "tensorShape": {"dim": [{"size": "5"}]}}}}}, {"name": "pred_lbbox/strided_slice_12/stack_1", "op": "Const", "attr": {"value": {"tensor": {"dtype": "DT_INT32", "tensorShape": {"dim": [{"size": "5"}]}}}, "dtype": {"type": "DT_INT32"}}}, {"name": "pred_lbbox/strided_slice_12/stack_2", "op": "Const", "attr": {"value": {"tensor": {"dtype": "DT_INT32", "tensorShape": {"dim": [{"size": "5"}]}}}, "dtype": {"type": "DT_INT32"}}}, {"name": "pred_lbbox/Tile_2/multiples/1", "op": "Const", "attr": {"value": {"tensor": {"dtype": "DT_INT32", "tensorShape": {}}}, "dtype": {"type": "DT_INT32"}}}, {"name": "pred_lbbox/Tile_2/multiples/2", "op": "Const", "attr": {"dtype": {"type": "DT_INT32"}, "value": {"tensor": {"dtype": "DT_INT32", "tensorShape": {}}}}}, {"name": "pred_lbbox/Tile_2/multiples/3", "op": "Const", "attr": {"dtype": {"type": "DT_INT32"}, "value": {"tensor": {"dtype": "DT_INT32", "tensorShape": {}}}}}, {"name": "pred_lbbox/Tile_2/multiples/4", "op": "Const", "attr": {"dtype": {"type": "DT_INT32"}, "value": {"tensor": {"dtype": "DT_INT32", "tensorShape": {}}}}}, {"name": "pred_lbbox/strided_slice_3/stack", "op": "Const", "attr": {"dtype": {"type": "DT_INT32"}, "value": {"tensor": {"dtype": "DT_INT32", "tensorShape": {"dim": [{"size": "1"}]}}}}}, {"name": "pred_lbbox/strided_slice_3/stack_1", "op": "Const", "attr": {"value": {"tensor": {"dtype": "DT_INT32", "tensorShape": {"dim": [{"size": "1"}]}}}, "dtype": {"type": "DT_INT32"}}}, {"name": "pred_lbbox/strided_slice_3/stack_2", "op": "Const", "attr": {"value": {"tensor": {"dtype": "DT_INT32", "tensorShape": {"dim": [{"size": "1"}]}}}, "dtype": {"type": "DT_INT32"}}}, {"name": "pred_lbbox/strided_slice_13/stack", "op": "Const", "attr": {"value": {"tensor": {"dtype": "DT_INT32", "tensorShape": {"dim": [{"size": "1"}]}}}, "dtype": {"type": "DT_INT32"}}}, {"name": "pred_lbbox/strided_slice_13/stack_1", "op": "Const", "attr": {"value": {"tensor": {"dtype": "DT_INT32", "tensorShape": {"dim": [{"size": "1"}]}}}, "dtype": {"type": "DT_INT32"}}}, {"name": "pred_lbbox/strided_slice_13/stack_2", "op": "Const", "attr": {"dtype": {"type": "DT_INT32"}, "value": {"tensor": {"dtype": "DT_INT32", "tensorShape": {"dim": [{"size": "1"}]}}}}}, {"name": "pred_lbbox/strided_slice_5/stack", "op": "Const", "attr": {"value": {"tensor": {"dtype": "DT_INT32", "tensorShape": {"dim": [{"size": "5"}]}}}, "dtype": {"type": "DT_INT32"}}}, {"name": "pred_lbbox/strided_slice_5/stack_1", "op": "Const", "attr": {"dtype": {"type": "DT_INT32"}, "value": {"tensor": {"dtype": "DT_INT32", "tensorShape": {"dim": [{"size": "5"}]}}}}}, {"name": "pred_lbbox/strided_slice_5/stack_2", "op": "Const", "attr": {"value": {"tensor": {"dtype": "DT_INT32", "tensorShape": {"dim": [{"size": "5"}]}}}, "dtype": {"type": "DT_INT32"}}}, {"name": "pred_lbbox/mul/y", "op": "Const", "attr": {"dtype": {"type": "DT_FLOAT"}, "value": {"tensor": {"dtype": "DT_FLOAT", "tensorShape": {"dim": [{"size": "3"}, {"size": "2"}]}}}}}, {"name": "pred_lbbox/truediv_1/y", "op": "Const", "attr": {"value": {"tensor": {"dtype": "DT_FLOAT", "tensorShape": {}}}, "dtype": {"type": "DT_FLOAT"}}}, {"name": "pred_lbbox/concat_1/axis", "op": "Const", "attr": {"dtype": {"type": "DT_INT32"}, "value": {"tensor": {"dtype": "DT_INT32", "tensorShape": {}}}}}, {"name": "pred_lbbox/strided_slice_6/stack", "op": "Const", "attr": {"value": {"tensor": {"dtype": "DT_INT32", "tensorShape": {"dim": [{"size": "5"}]}}}, "dtype": {"type": "DT_INT32"}}}, {"name": "pred_lbbox/strided_slice_6/stack_1", "op": "Const", "attr": {"value": {"tensor": {"dtype": "DT_INT32", "tensorShape": {"dim": [{"size": "5"}]}}}, "dtype": {"type": "DT_INT32"}}}, {"name": "pred_lbbox/strided_slice_6/stack_2", "op": "Const", "attr": {"value": {"tensor": {"dtype": "DT_INT32", "tensorShape": {"dim": [{"size": "5"}]}}}, "dtype": {"type": "DT_INT32"}}}, {"name": "pred_lbbox/strided_slice/stack", "op": "Const", "attr": {"dtype": {"type": "DT_INT32"}, "value": {"tensor": {"dtype": "DT_INT32", "tensorShape": {"dim": [{"size": "1"}]}}}}}, {"name": "pred_lbbox/strided_slice/stack_1", "op": "Const", "attr": {"dtype": {"type": "DT_INT32"}, "value": {"tensor": {"dtype": "DT_INT32", "tensorShape": {"dim": [{"size": "1"}]}}}}}, {"name": "pred_lbbox/strided_slice/stack_2", "op": "Const", "attr": {"value": {"tensor": {"dtype": "DT_INT32", "tensorShape": {"dim": [{"size": "1"}]}}}, "dtype": {"type": "DT_INT32"}}}, {"name": "pred_lbbox/strided_slice_1/stack", "op": "Const", "attr": {"dtype": {"type": "DT_INT32"}, "value": {"tensor": {"dtype": "DT_INT32", "tensorShape": {"dim": [{"size": "1"}]}}}}}, {"name": "pred_lbbox/strided_slice_1/stack_1", "op": "Const", "attr": {"value": {"tensor": {"dtype": "DT_INT32", "tensorShape": {"dim": [{"size": "1"}]}}}, "dtype": {"type": "DT_INT32"}}}, {"name": "pred_lbbox/strided_slice_1/stack_2", "op": "Const", "attr": {"dtype": {"type": "DT_INT32"}, "value": {"tensor": {"dtype": "DT_INT32", "tensorShape": {"dim": [{"size": "1"}]}}}}}, {"name": "faster/conv7/weight", "op": "Const", "attr": {"value": {"tensor": {"dtype": "DT_FLOAT", "tensorShape": {"dim": [{"size": "1"}, {"size": "1"}, {"size": "128"}, {"size": "18"}]}}}, "dtype": {"type": "DT_FLOAT"}}}, {"name": "faster/conv7/bias", "op": "Const", "attr": {"value": {"tensor": {"dtype": "DT_FLOAT", "tensorShape": {"dim": [{"size": "18"}]}}}, "dtype": {"type": "DT_FLOAT"}}}, {"name": "pred_lbbox/strided_slice_2/stack", "op": "Const", "attr": {"value": {"tensor": {"dtype": "DT_INT32", "tensorShape": {"dim": [{"size": "1"}]}}}, "dtype": {"type": "DT_INT32"}}}, {"name": "pred_lbbox/strided_slice_2/stack_1", "op": "Const", "attr": {"dtype": {"type": "DT_INT32"}, "value": {"tensor": {"dtype": "DT_INT32", "tensorShape": {"dim": [{"size": "1"}]}}}}}, {"name": "pred_lbbox/strided_slice_2/stack_2", "op": "Const", "attr": {"value": {"tensor": {"dtype": "DT_INT32", "tensorShape": {"dim": [{"size": "1"}]}}}, "dtype": {"type": "DT_INT32"}}}, {"name": "pred_lbbox/Reshape/shape/3", "op": "Const", "attr": {"dtype": {"type": "DT_INT32"}, "value": {"tensor": {"dtype": "DT_INT32", "tensorShape": {}}}}}, {"name": "pred_lbbox/Reshape/shape/4", "op": "Const", "attr": {"dtype": {"type": "DT_INT32"}, "value": {"tensor": {"dtype": "DT_INT32", "tensorShape": {}}}}}, {"name": "pred_lbbox/strided_slice_7/stack", "op": "Const", "attr": {"value": {"tensor": {"dtype": "DT_INT32", "tensorShape": {"dim": [{"size": "5"}]}}}, "dtype": {"type": "DT_INT32"}}}, {"name": "pred_lbbox/strided_slice_7/stack_1", "op": "Const", "attr": {"value": {"tensor": {"dtype": "DT_INT32", "tensorShape": {"dim": [{"size": "5"}]}}}, "dtype": {"type": "DT_INT32"}}}, {"name": "pred_lbbox/strided_slice_7/stack_2", "op": "Const", "attr": {"value": {"tensor": {"dtype": "DT_INT32", "tensorShape": {"dim": [{"size": "5"}]}}}, "dtype": {"type": "DT_INT32"}}}, {"name": "pred_lbbox/concat_2/axis", "op": "Const", "attr": {"value": {"tensor": {"dtype": "DT_INT32", "tensorShape": {}}}, "dtype": {"type": "DT_INT32"}}}, {"name": "pred_sbbox/strided_slice_4/stack", "op": "Const", "attr": {"value": {"tensor": {"dtype": "DT_INT32", "tensorShape": {"dim": [{"size": "5"}]}}}, "dtype": {"type": "DT_INT32"}}}, {"name": "pred_sbbox/strided_slice_4/stack_1", "op": "Const", "attr": {"dtype": {"type": "DT_INT32"}, "value": {"tensor": {"dtype": "DT_INT32", "tensorShape": {"dim": [{"size": "5"}]}}}}}, {"name": "pred_sbbox/strided_slice_4/stack_2", "op": "Const", "attr": {"value": {"tensor": {"dtype": "DT_INT32", "tensorShape": {"dim": [{"size": "5"}]}}}, "dtype": {"type": "DT_INT32"}}}, {"name": "pred_sbbox/range_1/start", "op": "Const", "attr": {"dtype": {"type": "DT_INT32"}, "value": {"tensor": {"dtype": "DT_INT32", "tensorShape": {}}}}}, {"name": "pred_sbbox/range_1/delta", "op": "Const", "attr": {"dtype": {"type": "DT_INT32"}, "value": {"tensor": {"dtype": "DT_INT32", "tensorShape": {}}}}}, {"name": "pred_sbbox/strided_slice_9/stack", "op": "Const", "attr": {"dtype": {"type": "DT_INT32"}, "value": {"tensor": {"dtype": "DT_INT32", "tensorShape": {"dim": [{"size": "2"}]}}}}}, {"name": "pred_sbbox/strided_slice_9/stack_1", "op": "Const", "attr": {"dtype": {"type": "DT_INT32"}, "value": {"tensor": {"dtype": "DT_INT32", "tensorShape": {"dim": [{"size": "2"}]}}}}}, {"name": "pred_sbbox/strided_slice_9/stack_2", "op": "Const", "attr": {"value": {"tensor": {"dtype": "DT_INT32", "tensorShape": {"dim": [{"size": "2"}]}}}, "dtype": {"type": "DT_INT32"}}}, {"name": "pred_sbbox/Tile_1/multiples/1", "op": "Const", "attr": {"value": {"tensor": {"dtype": "DT_INT32", "tensorShape": {}}}, "dtype": {"type": "DT_INT32"}}}, {"name": "pred_sbbox/strided_slice_10/stack", "op": "Const", "attr": {"dtype": {"type": "DT_INT32"}, "value": {"tensor": {"dtype": "DT_INT32", "tensorShape": {"dim": [{"size": "3"}]}}}}}, {"name": "pred_sbbox/strided_slice_10/stack_1", "op": "Const", "attr": {"value": {"tensor": {"dtype": "DT_INT32", "tensorShape": {"dim": [{"size": "3"}]}}}, "dtype": {"type": "DT_INT32"}}}, {"name": "pred_sbbox/strided_slice_10/stack_2", "op": "Const", "attr": {"dtype": {"type": "DT_INT32"}, "value": {"tensor": {"dtype": "DT_INT32", "tensorShape": {"dim": [{"size": "3"}]}}}}}, {"name": "pred_sbbox/range/start", "op": "Const", "attr": {"value": {"tensor": {"dtype": "DT_INT32", "tensorShape": {}}}, "dtype": {"type": "DT_INT32"}}}, {"name": "pred_sbbox/range/delta", "op": "Const", "attr": {"dtype": {"type": "DT_INT32"}, "value": {"tensor": {"dtype": "DT_INT32", "tensorShape": {}}}}}, {"name": "pred_sbbox/strided_slice_8/stack", "op": "Const", "attr": {"value": {"tensor": {"dtype": "DT_INT32", "tensorShape": {"dim": [{"size": "2"}]}}}, "dtype": {"type": "DT_INT32"}}}, {"name": "pred_sbbox/strided_slice_8/stack_1", "op": "Const", "attr": {"value": {"tensor": {"dtype": "DT_INT32", "tensorShape": {"dim": [{"size": "2"}]}}}, "dtype": {"type": "DT_INT32"}}}, {"name": "pred_sbbox/strided_slice_8/stack_2", "op": "Const", "attr": {"dtype": {"type": "DT_INT32"}, "value": {"tensor": {"dtype": "DT_INT32", "tensorShape": {"dim": [{"size": "2"}]}}}}}, {"name": "pred_sbbox/Tile/multiples/0", "op": "Const", "attr": {"value": {"tensor": {"dtype": "DT_INT32", "tensorShape": {}}}, "dtype": {"type": "DT_INT32"}}}, {"name": "pred_sbbox/strided_slice_11/stack", "op": "Const", "attr": {"value": {"tensor": {"dtype": "DT_INT32", "tensorShape": {"dim": [{"size": "3"}]}}}, "dtype": {"type": "DT_INT32"}}}, {"name": "pred_sbbox/strided_slice_11/stack_1", "op": "Const", "attr": {"value": {"tensor": {"dtype": "DT_INT32", "tensorShape": {"dim": [{"size": "3"}]}}}, "dtype": {"type": "DT_INT32"}}}, {"name": "pred_sbbox/strided_slice_11/stack_2", "op": "Const", "attr": {"dtype": {"type": "DT_INT32"}, "value": {"tensor": {"dtype": "DT_INT32", "tensorShape": {"dim": [{"size": "3"}]}}}}}, {"name": "pred_sbbox/concat/axis", "op": "Const", "attr": {"dtype": {"type": "DT_INT32"}, "value": {"tensor": {"dtype": "DT_INT32", "tensorShape": {}}}}}, {"name": "pred_sbbox/strided_slice_12/stack", "op": "Const", "attr": {"dtype": {"type": "DT_INT32"}, "value": {"tensor": {"dtype": "DT_INT32", "tensorShape": {"dim": [{"size": "5"}]}}}}}, {"name": "pred_sbbox/strided_slice_12/stack_1", "op": "Const", "attr": {"dtype": {"type": "DT_INT32"}, "value": {"tensor": {"dtype": "DT_INT32", "tensorShape": {"dim": [{"size": "5"}]}}}}}, {"name": "pred_sbbox/strided_slice_12/stack_2", "op": "Const", "attr": {"value": {"tensor": {"dtype": "DT_INT32", "tensorShape": {"dim": [{"size": "5"}]}}}, "dtype": {"type": "DT_INT32"}}}, {"name": "pred_sbbox/Tile_2/multiples/1", "op": "Const", "attr": {"value": {"tensor": {"dtype": "DT_INT32", "tensorShape": {}}}, "dtype": {"type": "DT_INT32"}}}, {"name": "pred_sbbox/Tile_2/multiples/2", "op": "Const", "attr": {"dtype": {"type": "DT_INT32"}, "value": {"tensor": {"dtype": "DT_INT32", "tensorShape": {}}}}}, {"name": "pred_sbbox/Tile_2/multiples/3", "op": "Const", "attr": {"dtype": {"type": "DT_INT32"}, "value": {"tensor": {"dtype": "DT_INT32", "tensorShape": {}}}}}, {"name": "pred_sbbox/Tile_2/multiples/4", "op": "Const", "attr": {"value": {"tensor": {"dtype": "DT_INT32", "tensorShape": {}}}, "dtype": {"type": "DT_INT32"}}}, {"name": "pred_sbbox/strided_slice_3/stack", "op": "Const", "attr": {"dtype": {"type": "DT_INT32"}, "value": {"tensor": {"dtype": "DT_INT32", "tensorShape": {"dim": [{"size": "1"}]}}}}}, {"name": "pred_sbbox/strided_slice_3/stack_1", "op": "Const", "attr": {"value": {"tensor": {"dtype": "DT_INT32", "tensorShape": {"dim": [{"size": "1"}]}}}, "dtype": {"type": "DT_INT32"}}}, {"name": "pred_sbbox/strided_slice_3/stack_2", "op": "Const", "attr": {"dtype": {"type": "DT_INT32"}, "value": {"tensor": {"dtype": "DT_INT32", "tensorShape": {"dim": [{"size": "1"}]}}}}}, {"name": "pred_sbbox/strided_slice_13/stack", "op": "Const", "attr": {"value": {"tensor": {"dtype": "DT_INT32", "tensorShape": {"dim": [{"size": "1"}]}}}, "dtype": {"type": "DT_INT32"}}}, {"name": "pred_sbbox/strided_slice_13/stack_1", "op": "Const", "attr": {"value": {"tensor": {"dtype": "DT_INT32", "tensorShape": {"dim": [{"size": "1"}]}}}, "dtype": {"type": "DT_INT32"}}}, {"name": "pred_sbbox/strided_slice_13/stack_2", "op": "Const", "attr": {"dtype": {"type": "DT_INT32"}, "value": {"tensor": {"dtype": "DT_INT32", "tensorShape": {"dim": [{"size": "1"}]}}}}}, {"name": "pred_sbbox/strided_slice_5/stack", "op": "Const", "attr": {"dtype": {"type": "DT_INT32"}, "value": {"tensor": {"dtype": "DT_INT32", "tensorShape": {"dim": [{"size": "5"}]}}}}}, {"name": "pred_sbbox/strided_slice_5/stack_1", "op": "Const", "attr": {"dtype": {"type": "DT_INT32"}, "value": {"tensor": {"dtype": "DT_INT32", "tensorShape": {"dim": [{"size": "5"}]}}}}}, {"name": "pred_sbbox/strided_slice_5/stack_2", "op": "Const", "attr": {"value": {"tensor": {"dtype": "DT_INT32", "tensorShape": {"dim": [{"size": "5"}]}}}, "dtype": {"type": "DT_INT32"}}}, {"name": "pred_sbbox/mul/y", "op": "Const", "attr": {"dtype": {"type": "DT_FLOAT"}, "value": {"tensor": {"dtype": "DT_FLOAT", "tensorShape": {"dim": [{"size": "3"}, {"size": "2"}]}}}}}, {"name": "pred_sbbox/truediv_1/y", "op": "Const", "attr": {"dtype": {"type": "DT_FLOAT"}, "value": {"tensor": {"dtype": "DT_FLOAT", "tensorShape": {}}}}}, {"name": "pred_sbbox/concat_1/axis", "op": "Const", "attr": {"dtype": {"type": "DT_INT32"}, "value": {"tensor": {"dtype": "DT_INT32", "tensorShape": {}}}}}, {"name": "pred_sbbox/strided_slice_6/stack", "op": "Const", "attr": {"value": {"tensor": {"dtype": "DT_INT32", "tensorShape": {"dim": [{"size": "5"}]}}}, "dtype": {"type": "DT_INT32"}}}, {"name": "pred_sbbox/strided_slice_6/stack_1", "op": "Const", "attr": {"value": {"tensor": {"dtype": "DT_INT32", "tensorShape": {"dim": [{"size": "5"}]}}}, "dtype": {"type": "DT_INT32"}}}, {"name": "pred_sbbox/strided_slice_6/stack_2", "op": "Const", "attr": {"value": {"tensor": {"dtype": "DT_INT32", "tensorShape": {"dim": [{"size": "5"}]}}}, "dtype": {"type": "DT_INT32"}}}, {"name": "pred_sbbox/strided_slice/stack", "op": "Const", "attr": {"dtype": {"type": "DT_INT32"}, "value": {"tensor": {"dtype": "DT_INT32", "tensorShape": {"dim": [{"size": "1"}]}}}}}, {"name": "pred_sbbox/strided_slice/stack_1", "op": "Const", "attr": {"dtype": {"type": "DT_INT32"}, "value": {"tensor": {"dtype": "DT_INT32", "tensorShape": {"dim": [{"size": "1"}]}}}}}, {"name": "pred_sbbox/strided_slice/stack_2", "op": "Const", "attr": {"dtype": {"type": "DT_INT32"}, "value": {"tensor": {"dtype": "DT_INT32", "tensorShape": {"dim": [{"size": "1"}]}}}}}, {"name": "pred_sbbox/strided_slice_1/stack", "op": "Const", "attr": {"dtype": {"type": "DT_INT32"}, "value": {"tensor": {"dtype": "DT_INT32", "tensorShape": {"dim": [{"size": "1"}]}}}}}, {"name": "pred_sbbox/strided_slice_1/stack_1", "op": "Const", "attr": {"value": {"tensor": {"dtype": "DT_INT32", "tensorShape": {"dim": [{"size": "1"}]}}}, "dtype": {"type": "DT_INT32"}}}, {"name": "pred_sbbox/strided_slice_1/stack_2", "op": "Const", "attr": {"dtype": {"type": "DT_INT32"}, "value": {"tensor": {"dtype": "DT_INT32", "tensorShape": {"dim": [{"size": "1"}]}}}}}, {"name": "faster/upsample0/strided_slice/stack", "op": "Const", "attr": {"value": {"tensor": {"dtype": "DT_INT32", "tensorShape": {"dim": [{"size": "1"}]}}}, "dtype": {"type": "DT_INT32"}}}, {"name": "faster/upsample0/strided_slice/stack_1", "op": "Const", "attr": {"value": {"tensor": {"dtype": "DT_INT32", "tensorShape": {"dim": [{"size": "1"}]}}}, "dtype": {"type": "DT_INT32"}}}, {"name": "faster/upsample0/strided_slice/stack_2", "op": "Const", "attr": {"dtype": {"type": "DT_INT32"}, "value": {"tensor": {"dtype": "DT_INT32", "tensorShape": {"dim": [{"size": "1"}]}}}}}, {"name": "faster/upsample0/mul/y", "op": "Const", "attr": {"value": {"tensor": {"dtype": "DT_INT32", "tensorShape": {}}}, "dtype": {"type": "DT_INT32"}}}, {"name": "faster/d6/Const", "op": "Const", "attr": {"value": {"tensor": {"dtype": "DT_INT32", "tensorShape": {"dim": [{"size": "4"}, {"size": "2"}]}}}, "dtype": {"type": "DT_INT32"}}}, {"name": "faster/upsample0/strided_slice_1/stack", "op": "Const", "attr": {"value": {"tensor": {"dtype": "DT_INT32", "tensorShape": {"dim": [{"size": "1"}]}}}, "dtype": {"type": "DT_INT32"}}}, {"name": "faster/upsample0/strided_slice_1/stack_1", "op": "Const", "attr": {"dtype": {"type": "DT_INT32"}, "value": {"tensor": {"dtype": "DT_INT32", "tensorShape": {"dim": [{"size": "1"}]}}}}}, {"name": "faster/upsample0/strided_slice_1/stack_2", "op": "Const", "attr": {"dtype": {"type": "DT_INT32"}, "value": {"tensor": {"dtype": "DT_INT32", "tensorShape": {"dim": [{"size": "1"}]}}}}}, {"name": "faster/upsample0/mul_1/y", "op": "Const", "attr": {"value": {"tensor": {"dtype": "DT_INT32", "tensorShape": {}}}, "dtype": {"type": "DT_INT32"}}}, {"name": "input/input_data", "op": "Placeholder", "attr": {"shape": {"shape": {"unknownRank": true}}, "dtype": {"type": "DT_FLOAT"}}}, {"name": "faster/conv0/Const", "op": "Const", "attr": {"dtype": {"type": "DT_INT32"}, "value": {"tensor": {"dtype": "DT_INT32", "tensorShape": {"dim": [{"size": "4"}, {"size": "2"}]}}}}}, {"name": "faster/d2/Const", "op": "Const", "attr": {"dtype": {"type": "DT_INT32"}, "value": {"tensor": {"dtype": "DT_INT32", "tensorShape": {"dim": [{"size": "4"}, {"size": "2"}]}}}}}, {"name": "faster/d3/Const", "op": "Const", "attr": {"dtype": {"type": "DT_INT32"}, "value": {"tensor": {"dtype": "DT_INT32", "tensorShape": {"dim": [{"size": "4"}, {"size": "2"}]}}}}}, {"name": "faster/d5/Const", "op": "Const", "attr": {"dtype": {"type": "DT_INT32"}, "value": {"tensor": {"dtype": "DT_INT32", "tensorShape": {"dim": [{"size": "4"}, {"size": "2"}]}}}}}, {"name": "faster/concat/axis", "op": "Const", "attr": {"value": {"tensor": {"dtype": "DT_INT32", "tensorShape": {}}}, "dtype": {"type": "DT_INT32"}}}, {"name": "conv6/weight", "op": "Const", "attr": {"dtype": {"type": "DT_FLOAT"}, "value": {"tensor": {"dtype": "DT_FLOAT", "tensorShape": {"dim": [{"size": "1"}, {"size": "1"}, {"size": "96"}, {"size": "18"}]}}}}}, {"name": "conv6/bias", "op": "Const", "attr": {"dtype": {"type": "DT_FLOAT"}, "value": {"tensor": {"dtype": "DT_FLOAT", "tensorShape": {"dim": [{"size": "18"}]}}}}}, {"name": "pred_sbbox/strided_slice_2/stack", "op": "Const", "attr": {"value": {"tensor": {"dtype": "DT_INT32", "tensorShape": {"dim": [{"size": "1"}]}}}, "dtype": {"type": "DT_INT32"}}}, {"name": "pred_sbbox/strided_slice_2/stack_1", "op": "Const", "attr": {"dtype": {"type": "DT_INT32"}, "value": {"tensor": {"dtype": "DT_INT32", "tensorShape": {"dim": [{"size": "1"}]}}}}}, {"name": "pred_sbbox/strided_slice_2/stack_2", "op": "Const", "attr": {"dtype": {"type": "DT_INT32"}, "value": {"tensor": {"dtype": "DT_INT32", "tensorShape": {"dim": [{"size": "1"}]}}}}}, {"name": "pred_sbbox/Reshape/shape/3", "op": "Const", "attr": {"dtype": {"type": "DT_INT32"}, "value": {"tensor": {"dtype": "DT_INT32", "tensorShape": {}}}}}, {"name": "pred_sbbox/Reshape/shape/4", "op": "Const", "attr": {"value": {"tensor": {"dtype": "DT_INT32", "tensorShape": {}}}, "dtype": {"type": "DT_INT32"}}}, {"name": "pred_sbbox/strided_slice_7/stack", "op": "Const", "attr": {"dtype": {"type": "DT_INT32"}, "value": {"tensor": {"dtype": "DT_INT32", "tensorShape": {"dim": [{"size": "5"}]}}}}}, {"name": "pred_sbbox/strided_slice_7/stack_1", "op": "Const", "attr": {"dtype": {"type": "DT_INT32"}, "value": {"tensor": {"dtype": "DT_INT32", "tensorShape": {"dim": [{"size": "5"}]}}}}}, {"name": "pred_sbbox/strided_slice_7/stack_2", "op": "Const", "attr": {"dtype": {"type": "DT_INT32"}, "value": {"tensor": {"dtype": "DT_INT32", "tensorShape": {"dim": [{"size": "5"}]}}}}}, {"name": "pred_sbbox/concat_2/axis", "op": "Const", "attr": {"dtype": {"type": "DT_INT32"}, "value": {"tensor": {"dtype": "DT_INT32", "tensorShape": {}}}}}, {"name": "faster/conv0/Conv2D_weights", "op": "Const", "attr": {"dtype": {"type": "DT_FLOAT"}, "value": {"tensor": {"dtype": "DT_FLOAT", "tensorShape": {"dim": [{"size": "3"}, {"size": "3"}, {"size": "3"}, {"size": "8"}]}}}}}, {"name": "faster/conv0/Conv2D_bn_offset", "op": "Const", "attr": {"dtype": {"type": "DT_FLOAT"}, "value": {"tensor": {"dtype": "DT_FLOAT", "tensorShape": {"dim": [{"size": "8"}]}}}}}, {"name": "faster/d1/conv1/Conv2D_weights", "op": "Const", "attr": {"dtype": {"type": "DT_FLOAT"}, "value": {"tensor": {"dtype": "DT_FLOAT", "tensorShape": {"dim": [{"size": "1"}, {"size": "1"}, {"size": "8"}, {"size": "8"}]}}}}}, {"name": "faster/d1/conv1/Conv2D_bn_offset", "op": "Const", "attr": {"dtype": {"type": "DT_FLOAT"}, "value": {"tensor": {"dtype": "DT_FLOAT", "tensorShape": {"dim": [{"size": "8"}]}}}}}, {"name": "faster/d1/conv2_1_weights", "op": "Const", "attr": {"dtype": {"type": "DT_FLOAT"}, "value": {"tensor": {"dtype": "DT_FLOAT", "tensorShape": {"dim": [{"size": "3"}, {"size": "3"}, {"size": "8"}, {"size": "1"}]}}}}}, {"name": "faster/d1/conv2_1_bn_offset", "op": "Const", "attr": {"dtype": {"type": "DT_FLOAT"}, "value": {"tensor": {"dtype": "DT_FLOAT", "tensorShape": {"dim": [{"size": "8"}]}}}}}, {"name": "faster/d1/conv3/Conv2D_weights", "op": "Const", "attr": {"value": {"tensor": {"dtype": "DT_FLOAT", "tensorShape": {"dim": [{"size": "1"}, {"size": "1"}, {"size": "8"}, {"size": "4"}]}}}, "dtype": {"type": "DT_FLOAT"}}}, {"name": "faster/d1/conv3/Conv2D_bn_offset", "op": "Const", "attr": {"dtype": {"type": "DT_FLOAT"}, "value": {"tensor": {"dtype": "DT_FLOAT", "tensorShape": {"dim": [{"size": "4"}]}}}}}, {"name": "faster/res1/deepwise1/conv1/Conv2D_weights", "op": "Const", "attr": {"value": {"tensor": {"dtype": "DT_FLOAT", "tensorShape": {"dim": [{"size": "1"}, {"size": "1"}, {"size": "4"}, {"size": "8"}]}}}, "dtype": {"type": "DT_FLOAT"}}}, {"name": "faster/res1/deepwise1/conv1/Conv2D_bn_offset", "op": "Const", "attr": {"dtype": {"type": "DT_FLOAT"}, "value": {"tensor": {"dtype": "DT_FLOAT", "tensorShape": {"dim": [{"size": "8"}]}}}}}, {"name": "faster/res1/deepwise1/conv2_1_weights", "op": "Const", "attr": {"value": {"tensor": {"dtype": "DT_FLOAT", "tensorShape": {"dim": [{"size": "3"}, {"size": "3"}, {"size": "8"}, {"size": "1"}]}}}, "dtype": {"type": "DT_FLOAT"}}}, {"name": "faster/res1/deepwise1/conv2_1_bn_offset", "op": "Const", "attr": {"dtype": {"type": "DT_FLOAT"}, "value": {"tensor": {"dtype": "DT_FLOAT", "tensorShape": {"dim": [{"size": "8"}]}}}}}, {"name": "faster/res1/deepwise1/conv3/Conv2D_weights", "op": "Const", "attr": {"dtype": {"type": "DT_FLOAT"}, "value": {"tensor": {"dtype": "DT_FLOAT", "tensorShape": {"dim": [{"size": "1"}, {"size": "1"}, {"size": "8"}, {"size": "4"}]}}}}}, {"name": "faster/res1/deepwise1/conv3/Conv2D_bn_offset", "op": "Const", "attr": {"dtype": {"type": "DT_FLOAT"}, "value": {"tensor": {"dtype": "DT_FLOAT", "tensorShape": {"dim": [{"size": "4"}]}}}}}, {"name": "faster/d2/conv1/Conv2D_weights", "op": "Const", "attr": {"dtype": {"type": "DT_FLOAT"}, "value": {"tensor": {"dtype": "DT_FLOAT", "tensorShape": {"dim": [{"size": "1"}, {"size": "1"}, {"size": "4"}, {"size": "24"}]}}}}}, {"name": "faster/d2/conv1/Conv2D_bn_offset", "op": "Const", "attr": {"dtype": {"type": "DT_FLOAT"}, "value": {"tensor": {"dtype": "DT_FLOAT", "tensorShape": {"dim": [{"size": "24"}]}}}}}, {"name": "faster/d2/conv2_1_weights", "op": "Const", "attr": {"value": {"tensor": {"dtype": "DT_FLOAT", "tensorShape": {"dim": [{"size": "3"}, {"size": "3"}, {"size": "24"}, {"size": "1"}]}}}, "dtype": {"type": "DT_FLOAT"}}}, {"name": "faster/d2/conv2_1_bn_offset", "op": "Const", "attr": {"dtype": {"type": "DT_FLOAT"}, "value": {"tensor": {"dtype": "DT_FLOAT", "tensorShape": {"dim": [{"size": "24"}]}}}}}, {"name": "faster/d2/conv3/Conv2D_weights", "op": "Const", "attr": {"dtype": {"type": "DT_FLOAT"}, "value": {"tensor": {"dtype": "DT_FLOAT", "tensorShape": {"dim": [{"size": "1"}, {"size": "1"}, {"size": "24"}, {"size": "8"}]}}}}}, {"name": "faster/d2/conv3/Conv2D_bn_offset", "op": "Const", "attr": {"value": {"tensor": {"dtype": "DT_FLOAT", "tensorShape": {"dim": [{"size": "8"}]}}}, "dtype": {"type": "DT_FLOAT"}}}, {"name": "faster/res2_0/deepwise1/conv1/Conv2D_weights", "op": "Const", "attr": {"dtype": {"type": "DT_FLOAT"}, "value": {"tensor": {"dtype": "DT_FLOAT", "tensorShape": {"dim": [{"size": "1"}, {"size": "1"}, {"size": "8"}, {"size": "32"}]}}}}}, {"name": "faster/res2_0/deepwise1/conv1/Conv2D_bn_offset", "op": "Const", "attr": {"dtype": {"type": "DT_FLOAT"}, "value": {"tensor": {"dtype": "DT_FLOAT", "tensorShape": {"dim": [{"size": "32"}]}}}}}, {"name": "faster/res2_0/deepwise1/conv2_1_weights", "op": "Const", "attr": {"dtype": {"type": "DT_FLOAT"}, "value": {"tensor": {"dtype": "DT_FLOAT", "tensorShape": {"dim": [{"size": "3"}, {"size": "3"}, {"size": "32"}, {"size": "1"}]}}}}}, {"name": "faster/res2_0/deepwise1/conv2_1_bn_offset", "op": "Const", "attr": {"value": {"tensor": {"dtype": "DT_FLOAT", "tensorShape": {"dim": [{"size": "32"}]}}}, "dtype": {"type": "DT_FLOAT"}}}, {"name": "faster/res2_0/deepwise1/conv3/Conv2D_weights", "op": "Const", "attr": {"dtype": {"type": "DT_FLOAT"}, "value": {"tensor": {"dtype": "DT_FLOAT", "tensorShape": {"dim": [{"size": "1"}, {"size": "1"}, {"size": "32"}, {"size": "8"}]}}}}}, {"name": "faster/res2_0/deepwise1/conv3/Conv2D_bn_offset", "op": "Const", "attr": {"value": {"tensor": {"dtype": "DT_FLOAT", "tensorShape": {"dim": [{"size": "8"}]}}}, "dtype": {"type": "DT_FLOAT"}}}, {"name": "faster/res2_1/deepwise1/conv1/Conv2D_weights", "op": "Const", "attr": {"dtype": {"type": "DT_FLOAT"}, "value": {"tensor": {"dtype": "DT_FLOAT", "tensorShape": {"dim": [{"size": "1"}, {"size": "1"}, {"size": "8"}, {"size": "32"}]}}}}}, {"name": "faster/res2_1/deepwise1/conv1/Conv2D_bn_offset", "op": "Const", "attr": {"dtype": {"type": "DT_FLOAT"}, "value": {"tensor": {"dtype": "DT_FLOAT", "tensorShape": {"dim": [{"size": "32"}]}}}}}, {"name": "faster/res2_1/deepwise1/conv2_1_weights", "op": "Const", "attr": {"value": {"tensor": {"dtype": "DT_FLOAT", "tensorShape": {"dim": [{"size": "3"}, {"size": "3"}, {"size": "32"}, {"size": "1"}]}}}, "dtype": {"type": "DT_FLOAT"}}}, {"name": "faster/res2_1/deepwise1/conv2_1_bn_offset", "op": "Const", "attr": {"value": {"tensor": {"dtype": "DT_FLOAT", "tensorShape": {"dim": [{"size": "32"}]}}}, "dtype": {"type": "DT_FLOAT"}}}, {"name": "faster/res2_1/deepwise1/conv3/Conv2D_weights", "op": "Const", "attr": {"dtype": {"type": "DT_FLOAT"}, "value": {"tensor": {"dtype": "DT_FLOAT", "tensorShape": {"dim": [{"size": "1"}, {"size": "1"}, {"size": "32"}, {"size": "8"}]}}}}}, {"name": "faster/res2_1/deepwise1/conv3/Conv2D_bn_offset", "op": "Const", "attr": {"value": {"tensor": {"dtype": "DT_FLOAT", "tensorShape": {"dim": [{"size": "8"}]}}}, "dtype": {"type": "DT_FLOAT"}}}, {"name": "faster/d3/conv1/Conv2D_weights", "op": "Const", "attr": {"value": {"tensor": {"dtype": "DT_FLOAT", "tensorShape": {"dim": [{"size": "1"}, {"size": "1"}, {"size": "8"}, {"size": "32"}]}}}, "dtype": {"type": "DT_FLOAT"}}}, {"name": "faster/d3/conv1/Conv2D_bn_offset", "op": "Const", "attr": {"value": {"tensor": {"dtype": "DT_FLOAT", "tensorShape": {"dim": [{"size": "32"}]}}}, "dtype": {"type": "DT_FLOAT"}}}, {"name": "faster/d3/conv2_1_weights", "op": "Const", "attr": {"value": {"tensor": {"dtype": "DT_FLOAT", "tensorShape": {"dim": [{"size": "3"}, {"size": "3"}, {"size": "32"}, {"size": "1"}]}}}, "dtype": {"type": "DT_FLOAT"}}}, {"name": "faster/d3/conv2_1_bn_offset", "op": "Const", "attr": {"dtype": {"type": "DT_FLOAT"}, "value": {"tensor": {"dtype": "DT_FLOAT", "tensorShape": {"dim": [{"size": "32"}]}}}}}, {"name": "faster/d3/conv3/Conv2D_weights", "op": "Const", "attr": {"dtype": {"type": "DT_FLOAT"}, "value": {"tensor": {"dtype": "DT_FLOAT", "tensorShape": {"dim": [{"size": "1"}, {"size": "1"}, {"size": "32"}, {"size": "8"}]}}}}}, {"name": "faster/d3/conv3/Conv2D_bn_offset", "op": "Const", "attr": {"value": {"tensor": {"dtype": "DT_FLOAT", "tensorShape": {"dim": [{"size": "8"}]}}}, "dtype": {"type": "DT_FLOAT"}}}, {"name": "faster/res3_0/deepwise1/conv1/Conv2D_weights", "op": "Const", "attr": {"dtype": {"type": "DT_FLOAT"}, "value": {"tensor": {"dtype": "DT_FLOAT", "tensorShape": {"dim": [{"size": "1"}, {"size": "1"}, {"size": "8"}, {"size": "48"}]}}}}}, {"name": "faster/res3_0/deepwise1/conv1/Conv2D_bn_offset", "op": "Const", "attr": {"value": {"tensor": {"dtype": "DT_FLOAT", "tensorShape": {"dim": [{"size": "48"}]}}}, "dtype": {"type": "DT_FLOAT"}}}, {"name": "faster/res3_0/deepwise1/conv2_1_weights", "op": "Const", "attr": {"dtype": {"type": "DT_FLOAT"}, "value": {"tensor": {"dtype": "DT_FLOAT", "tensorShape": {"dim": [{"size": "3"}, {"size": "3"}, {"size": "48"}, {"size": "1"}]}}}}}, {"name": "faster/res3_0/deepwise1/conv2_1_bn_offset", "op": "Const", "attr": {"value": {"tensor": {"dtype": "DT_FLOAT", "tensorShape": {"dim": [{"size": "48"}]}}}, "dtype": {"type": "DT_FLOAT"}}}, {"name": "faster/res3_0/deepwise1/conv3/Conv2D_weights", "op": "Const", "attr": {"dtype": {"type": "DT_FLOAT"}, "value": {"tensor": {"dtype": "DT_FLOAT", "tensorShape": {"dim": [{"size": "1"}, {"size": "1"}, {"size": "48"}, {"size": "8"}]}}}}}, {"name": "faster/res3_0/deepwise1/conv3/Conv2D_bn_offset", "op": "Const", "attr": {"value": {"tensor": {"dtype": "DT_FLOAT", "tensorShape": {"dim": [{"size": "8"}]}}}, "dtype": {"type": "DT_FLOAT"}}}, {"name": "faster/res3_1/deepwise1/conv1/Conv2D_weights", "op": "Const", "attr": {"value": {"tensor": {"dtype": "DT_FLOAT", "tensorShape": {"dim": [{"size": "1"}, {"size": "1"}, {"size": "8"}, {"size": "48"}]}}}, "dtype": {"type": "DT_FLOAT"}}}, {"name": "faster/res3_1/deepwise1/conv1/Conv2D_bn_offset", "op": "Const", "attr": {"dtype": {"type": "DT_FLOAT"}, "value": {"tensor": {"dtype": "DT_FLOAT", "tensorShape": {"dim": [{"size": "48"}]}}}}}, {"name": "faster/res3_1/deepwise1/conv2_1_weights", "op": "Const", "attr": {"value": {"tensor": {"dtype": "DT_FLOAT", "tensorShape": {"dim": [{"size": "3"}, {"size": "3"}, {"size": "48"}, {"size": "1"}]}}}, "dtype": {"type": "DT_FLOAT"}}}, {"name": "faster/res3_1/deepwise1/conv2_1_bn_offset", "op": "Const", "attr": {"value": {"tensor": {"dtype": "DT_FLOAT", "tensorShape": {"dim": [{"size": "48"}]}}}, "dtype": {"type": "DT_FLOAT"}}}, {"name": "faster/res3_1/deepwise1/conv3/Conv2D_weights", "op": "Const", "attr": {"value": {"tensor": {"dtype": "DT_FLOAT", "tensorShape": {"dim": [{"size": "1"}, {"size": "1"}, {"size": "48"}, {"size": "8"}]}}}, "dtype": {"type": "DT_FLOAT"}}}, {"name": "faster/res3_1/deepwise1/conv3/Conv2D_bn_offset", "op": "Const", "attr": {"value": {"tensor": {"dtype": "DT_FLOAT", "tensorShape": {"dim": [{"size": "8"}]}}}, "dtype": {"type": "DT_FLOAT"}}}, {"name": "faster/d4/conv1/Conv2D_weights", "op": "Const", "attr": {"value": {"tensor": {"dtype": "DT_FLOAT", "tensorShape": {"dim": [{"size": "1"}, {"size": "1"}, {"size": "8"}, {"size": "48"}]}}}, "dtype": {"type": "DT_FLOAT"}}}, {"name": "faster/d4/conv1/Conv2D_bn_offset", "op": "Const", "attr": {"value": {"tensor": {"dtype": "DT_FLOAT", "tensorShape": {"dim": [{"size": "48"}]}}}, "dtype": {"type": "DT_FLOAT"}}}, {"name": "faster/d4/conv2_1_weights", "op": "Const", "attr": {"value": {"tensor": {"dtype": "DT_FLOAT", "tensorShape": {"dim": [{"size": "3"}, {"size": "3"}, {"size": "48"}, {"size": "1"}]}}}, "dtype": {"type": "DT_FLOAT"}}}, {"name": "faster/d4/conv2_1_bn_offset", "op": "Const", "attr": {"value": {"tensor": {"dtype": "DT_FLOAT", "tensorShape": {"dim": [{"size": "48"}]}}}, "dtype": {"type": "DT_FLOAT"}}}, {"name": "faster/d4/conv3/Conv2D_weights", "op": "Const", "attr": {"value": {"tensor": {"dtype": "DT_FLOAT", "tensorShape": {"dim": [{"size": "1"}, {"size": "1"}, {"size": "48"}, {"size": "16"}]}}}, "dtype": {"type": "DT_FLOAT"}}}, {"name": "faster/d4/conv3/Conv2D_bn_offset", "op": "Const", "attr": {"value": {"tensor": {"dtype": "DT_FLOAT", "tensorShape": {"dim": [{"size": "16"}]}}}, "dtype": {"type": "DT_FLOAT"}}}, {"name": "faster/res4_0/deepwise1/conv1/Conv2D_weights", "op": "Const", "attr": {"dtype": {"type": "DT_FLOAT"}, "value": {"tensor": {"dtype": "DT_FLOAT", "tensorShape": {"dim": [{"size": "1"}, {"size": "1"}, {"size": "16"}, {"size": "96"}]}}}}}, {"name": "faster/res4_0/deepwise1/conv1/Conv2D_bn_offset", "op": "Const", "attr": {"value": {"tensor": {"dtype": "DT_FLOAT", "tensorShape": {"dim": [{"size": "96"}]}}}, "dtype": {"type": "DT_FLOAT"}}}, {"name": "faster/res4_0/deepwise1/conv2_1_weights", "op": "Const", "attr": {"dtype": {"type": "DT_FLOAT"}, "value": {"tensor": {"dtype": "DT_FLOAT", "tensorShape": {"dim": [{"size": "3"}, {"size": "3"}, {"size": "96"}, {"size": "1"}]}}}}}, {"name": "faster/res4_0/deepwise1/conv2_1_bn_offset", "op": "Const", "attr": {"dtype": {"type": "DT_FLOAT"}, "value": {"tensor": {"dtype": "DT_FLOAT", "tensorShape": {"dim": [{"size": "96"}]}}}}}, {"name": "faster/res4_0/deepwise1/conv3/Conv2D_weights", "op": "Const", "attr": {"dtype": {"type": "DT_FLOAT"}, "value": {"tensor": {"dtype": "DT_FLOAT", "tensorShape": {"dim": [{"size": "1"}, {"size": "1"}, {"size": "96"}, {"size": "16"}]}}}}}, {"name": "faster/res4_0/deepwise1/conv3/Conv2D_bn_offset", "op": "Const", "attr": {"value": {"tensor": {"dtype": "DT_FLOAT", "tensorShape": {"dim": [{"size": "16"}]}}}, "dtype": {"type": "DT_FLOAT"}}}, {"name": "faster/res4_1/deepwise1/conv1/Conv2D_weights", "op": "Const", "attr": {"dtype": {"type": "DT_FLOAT"}, "value": {"tensor": {"dtype": "DT_FLOAT", "tensorShape": {"dim": [{"size": "1"}, {"size": "1"}, {"size": "16"}, {"size": "96"}]}}}}}, {"name": "faster/res4_1/deepwise1/conv1/Conv2D_bn_offset", "op": "Const", "attr": {"dtype": {"type": "DT_FLOAT"}, "value": {"tensor": {"dtype": "DT_FLOAT", "tensorShape": {"dim": [{"size": "96"}]}}}}}, {"name": "faster/res4_1/deepwise1/conv2_1_weights", "op": "Const", "attr": {"value": {"tensor": {"dtype": "DT_FLOAT", "tensorShape": {"dim": [{"size": "3"}, {"size": "3"}, {"size": "96"}, {"size": "1"}]}}}, "dtype": {"type": "DT_FLOAT"}}}, {"name": "faster/res4_1/deepwise1/conv2_1_bn_offset", "op": "Const", "attr": {"value": {"tensor": {"dtype": "DT_FLOAT", "tensorShape": {"dim": [{"size": "96"}]}}}, "dtype": {"type": "DT_FLOAT"}}}, {"name": "faster/res4_1/deepwise1/conv3/Conv2D_weights", "op": "Const", "attr": {"dtype": {"type": "DT_FLOAT"}, "value": {"tensor": {"dtype": "DT_FLOAT", "tensorShape": {"dim": [{"size": "1"}, {"size": "1"}, {"size": "96"}, {"size": "16"}]}}}}}, {"name": "faster/res4_1/deepwise1/conv3/Conv2D_bn_offset", "op": "Const", "attr": {"dtype": {"type": "DT_FLOAT"}, "value": {"tensor": {"dtype": "DT_FLOAT", "tensorShape": {"dim": [{"size": "16"}]}}}}}, {"name": "faster/res4_2/deepwise1/conv1/Conv2D_weights", "op": "Const", "attr": {"dtype": {"type": "DT_FLOAT"}, "value": {"tensor": {"dtype": "DT_FLOAT", "tensorShape": {"dim": [{"size": "1"}, {"size": "1"}, {"size": "16"}, {"size": "96"}]}}}}}, {"name": "faster/res4_2/deepwise1/conv1/Conv2D_bn_offset", "op": "Const", "attr": {"dtype": {"type": "DT_FLOAT"}, "value": {"tensor": {"dtype": "DT_FLOAT", "tensorShape": {"dim": [{"size": "96"}]}}}}}, {"name": "faster/res4_2/deepwise1/conv2_1_weights", "op": "Const", "attr": {"value": {"tensor": {"dtype": "DT_FLOAT", "tensorShape": {"dim": [{"size": "3"}, {"size": "3"}, {"size": "96"}, {"size": "1"}]}}}, "dtype": {"type": "DT_FLOAT"}}}, {"name": "faster/res4_2/deepwise1/conv2_1_bn_offset", "op": "Const", "attr": {"value": {"tensor": {"dtype": "DT_FLOAT", "tensorShape": {"dim": [{"size": "96"}]}}}, "dtype": {"type": "DT_FLOAT"}}}, {"name": "faster/res4_2/deepwise1/conv3/Conv2D_weights", "op": "Const", "attr": {"value": {"tensor": {"dtype": "DT_FLOAT", "tensorShape": {"dim": [{"size": "1"}, {"size": "1"}, {"size": "96"}, {"size": "16"}]}}}, "dtype": {"type": "DT_FLOAT"}}}, {"name": "faster/res4_2/deepwise1/conv3/Conv2D_bn_offset", "op": "Const", "attr": {"dtype": {"type": "DT_FLOAT"}, "value": {"tensor": {"dtype": "DT_FLOAT", "tensorShape": {"dim": [{"size": "16"}]}}}}}, {"name": "faster/res4_3/deepwise1/conv1/Conv2D_weights", "op": "Const", "attr": {"dtype": {"type": "DT_FLOAT"}, "value": {"tensor": {"dtype": "DT_FLOAT", "tensorShape": {"dim": [{"size": "1"}, {"size": "1"}, {"size": "16"}, {"size": "96"}]}}}}}, {"name": "faster/res4_3/deepwise1/conv1/Conv2D_bn_offset", "op": "Const", "attr": {"value": {"tensor": {"dtype": "DT_FLOAT", "tensorShape": {"dim": [{"size": "96"}]}}}, "dtype": {"type": "DT_FLOAT"}}}, {"name": "faster/res4_3/deepwise1/conv2_1_weights", "op": "Const", "attr": {"dtype": {"type": "DT_FLOAT"}, "value": {"tensor": {"dtype": "DT_FLOAT", "tensorShape": {"dim": [{"size": "3"}, {"size": "3"}, {"size": "96"}, {"size": "1"}]}}}}}, {"name": "faster/res4_3/deepwise1/conv2_1_bn_offset", "op": "Const", "attr": {"dtype": {"type": "DT_FLOAT"}, "value": {"tensor": {"dtype": "DT_FLOAT", "tensorShape": {"dim": [{"size": "96"}]}}}}}, {"name": "faster/res4_3/deepwise1/conv3/Conv2D_weights", "op": "Const", "attr": {"dtype": {"type": "DT_FLOAT"}, "value": {"tensor": {"dtype": "DT_FLOAT", "tensorShape": {"dim": [{"size": "1"}, {"size": "1"}, {"size": "96"}, {"size": "16"}]}}}}}, {"name": "faster/res4_3/deepwise1/conv3/Conv2D_bn_offset", "op": "Const", "attr": {"value": {"tensor": {"dtype": "DT_FLOAT", "tensorShape": {"dim": [{"size": "16"}]}}}, "dtype": {"type": "DT_FLOAT"}}}, {"name": "faster/d5/conv1/Conv2D_weights", "op": "Const", "attr": {"dtype": {"type": "DT_FLOAT"}, "value": {"tensor": {"dtype": "DT_FLOAT", "tensorShape": {"dim": [{"size": "1"}, {"size": "1"}, {"size": "16"}, {"size": "96"}]}}}}}, {"name": "faster/d5/conv1/Conv2D_bn_offset", "op": "Const", "attr": {"dtype": {"type": "DT_FLOAT"}, "value": {"tensor": {"dtype": "DT_FLOAT", "tensorShape": {"dim": [{"size": "96"}]}}}}}, {"name": "faster/d5/conv2_1_weights", "op": "Const", "attr": {"dtype": {"type": "DT_FLOAT"}, "value": {"tensor": {"dtype": "DT_FLOAT", "tensorShape": {"dim": [{"size": "3"}, {"size": "3"}, {"size": "96"}, {"size": "1"}]}}}}}, {"name": "faster/d5/conv2_1_bn_offset", "op": "Const", "attr": {"value": {"tensor": {"dtype": "DT_FLOAT", "tensorShape": {"dim": [{"size": "96"}]}}}, "dtype": {"type": "DT_FLOAT"}}}, {"name": "faster/d5/conv3/Conv2D_weights", "op": "Const", "attr": {"value": {"tensor": {"dtype": "DT_FLOAT", "tensorShape": {"dim": [{"size": "1"}, {"size": "1"}, {"size": "96"}, {"size": "24"}]}}}, "dtype": {"type": "DT_FLOAT"}}}, {"name": "faster/d5/conv3/Conv2D_bn_offset", "op": "Const", "attr": {"value": {"tensor": {"dtype": "DT_FLOAT", "tensorShape": {"dim": [{"size": "24"}]}}}, "dtype": {"type": "DT_FLOAT"}}}, {"name": "faster/res5_0/deepwise1/conv1/Conv2D_weights", "op": "Const", "attr": {"value": {"tensor": {"dtype": "DT_FLOAT", "tensorShape": {"dim": [{"size": "1"}, {"size": "1"}, {"size": "24"}, {"size": "136"}]}}}, "dtype": {"type": "DT_FLOAT"}}}, {"name": "faster/res5_0/deepwise1/conv1/Conv2D_bn_offset", "op": "Const", "attr": {"value": {"tensor": {"dtype": "DT_FLOAT", "tensorShape": {"dim": [{"size": "136"}]}}}, "dtype": {"type": "DT_FLOAT"}}}, {"name": "faster/res5_0/deepwise1/conv2_1_weights", "op": "Const", "attr": {"dtype": {"type": "DT_FLOAT"}, "value": {"tensor": {"dtype": "DT_FLOAT", "tensorShape": {"dim": [{"size": "3"}, {"size": "3"}, {"size": "136"}, {"size": "1"}]}}}}}, {"name": "faster/res5_0/deepwise1/conv2_1_bn_offset", "op": "Const", "attr": {"dtype": {"type": "DT_FLOAT"}, "value": {"tensor": {"dtype": "DT_FLOAT", "tensorShape": {"dim": [{"size": "136"}]}}}}}, {"name": "faster/res5_0/deepwise1/conv3/Conv2D_weights", "op": "Const", "attr": {"value": {"tensor": {"dtype": "DT_FLOAT", "tensorShape": {"dim": [{"size": "1"}, {"size": "1"}, {"size": "136"}, {"size": "24"}]}}}, "dtype": {"type": "DT_FLOAT"}}}, {"name": "faster/res5_0/deepwise1/conv3/Conv2D_bn_offset", "op": "Const", "attr": {"dtype": {"type": "DT_FLOAT"}, "value": {"tensor": {"dtype": "DT_FLOAT", "tensorShape": {"dim": [{"size": "24"}]}}}}}, {"name": "faster/res5_1/deepwise1/conv1/Conv2D_weights", "op": "Const", "attr": {"value": {"tensor": {"dtype": "DT_FLOAT", "tensorShape": {"dim": [{"size": "1"}, {"size": "1"}, {"size": "24"}, {"size": "136"}]}}}, "dtype": {"type": "DT_FLOAT"}}}, {"name": "faster/res5_1/deepwise1/conv1/Conv2D_bn_offset", "op": "Const", "attr": {"dtype": {"type": "DT_FLOAT"}, "value": {"tensor": {"dtype": "DT_FLOAT", "tensorShape": {"dim": [{"size": "136"}]}}}}}, {"name": "faster/res5_1/deepwise1/conv2_1_weights", "op": "Const", "attr": {"value": {"tensor": {"dtype": "DT_FLOAT", "tensorShape": {"dim": [{"size": "3"}, {"size": "3"}, {"size": "136"}, {"size": "1"}]}}}, "dtype": {"type": "DT_FLOAT"}}}, {"name": "faster/res5_1/deepwise1/conv2_1_bn_offset", "op": "Const", "attr": {"dtype": {"type": "DT_FLOAT"}, "value": {"tensor": {"dtype": "DT_FLOAT", "tensorShape": {"dim": [{"size": "136"}]}}}}}, {"name": "faster/res5_1/deepwise1/conv3/Conv2D_weights", "op": "Const", "attr": {"dtype": {"type": "DT_FLOAT"}, "value": {"tensor": {"dtype": "DT_FLOAT", "tensorShape": {"dim": [{"size": "1"}, {"size": "1"}, {"size": "136"}, {"size": "24"}]}}}}}, {"name": "faster/res5_1/deepwise1/conv3/Conv2D_bn_offset", "op": "Const", "attr": {"value": {"tensor": {"dtype": "DT_FLOAT", "tensorShape": {"dim": [{"size": "24"}]}}}, "dtype": {"type": "DT_FLOAT"}}}, {"name": "faster/res5_2/deepwise1/conv1/Conv2D_weights", "op": "Const", "attr": {"dtype": {"type": "DT_FLOAT"}, "value": {"tensor": {"dtype": "DT_FLOAT", "tensorShape": {"dim": [{"size": "1"}, {"size": "1"}, {"size": "24"}, {"size": "136"}]}}}}}, {"name": "faster/res5_2/deepwise1/conv1/Conv2D_bn_offset", "op": "Const", "attr": {"dtype": {"type": "DT_FLOAT"}, "value": {"tensor": {"dtype": "DT_FLOAT", "tensorShape": {"dim": [{"size": "136"}]}}}}}, {"name": "faster/res5_2/deepwise1/conv2_1_weights", "op": "Const", "attr": {"value": {"tensor": {"dtype": "DT_FLOAT", "tensorShape": {"dim": [{"size": "3"}, {"size": "3"}, {"size": "136"}, {"size": "1"}]}}}, "dtype": {"type": "DT_FLOAT"}}}, {"name": "faster/res5_2/deepwise1/conv2_1_bn_offset", "op": "Const", "attr": {"value": {"tensor": {"dtype": "DT_FLOAT", "tensorShape": {"dim": [{"size": "136"}]}}}, "dtype": {"type": "DT_FLOAT"}}}, {"name": "faster/res5_2/deepwise1/conv3/Conv2D_weights", "op": "Const", "attr": {"value": {"tensor": {"dtype": "DT_FLOAT", "tensorShape": {"dim": [{"size": "1"}, {"size": "1"}, {"size": "136"}, {"size": "24"}]}}}, "dtype": {"type": "DT_FLOAT"}}}, {"name": "faster/res5_2/deepwise1/conv3/Conv2D_bn_offset", "op": "Const", "attr": {"dtype": {"type": "DT_FLOAT"}, "value": {"tensor": {"dtype": "DT_FLOAT", "tensorShape": {"dim": [{"size": "24"}]}}}}}, {"name": "faster/res5_3/deepwise1/conv1/Conv2D_weights", "op": "Const", "attr": {"dtype": {"type": "DT_FLOAT"}, "value": {"tensor": {"dtype": "DT_FLOAT", "tensorShape": {"dim": [{"size": "1"}, {"size": "1"}, {"size": "24"}, {"size": "136"}]}}}}}, {"name": "faster/res5_3/deepwise1/conv1/Conv2D_bn_offset", "op": "Const", "attr": {"dtype": {"type": "DT_FLOAT"}, "value": {"tensor": {"dtype": "DT_FLOAT", "tensorShape": {"dim": [{"size": "136"}]}}}}}, {"name": "faster/res5_3/deepwise1/conv2_1_weights", "op": "Const", "attr": {"value": {"tensor": {"dtype": "DT_FLOAT", "tensorShape": {"dim": [{"size": "3"}, {"size": "3"}, {"size": "136"}, {"size": "1"}]}}}, "dtype": {"type": "DT_FLOAT"}}}, {"name": "faster/res5_3/deepwise1/conv2_1_bn_offset", "op": "Const", "attr": {"dtype": {"type": "DT_FLOAT"}, "value": {"tensor": {"dtype": "DT_FLOAT", "tensorShape": {"dim": [{"size": "136"}]}}}}}, {"name": "faster/res5_3/deepwise1/conv3/Conv2D_weights", "op": "Const", "attr": {"dtype": {"type": "DT_FLOAT"}, "value": {"tensor": {"dtype": "DT_FLOAT", "tensorShape": {"dim": [{"size": "1"}, {"size": "1"}, {"size": "136"}, {"size": "24"}]}}}}}, {"name": "faster/res5_3/deepwise1/conv3/Conv2D_bn_offset", "op": "Const", "attr": {"dtype": {"type": "DT_FLOAT"}, "value": {"tensor": {"dtype": "DT_FLOAT", "tensorShape": {"dim": [{"size": "24"}]}}}}}, {"name": "faster/conv2/Conv2D_weights", "op": "Const", "attr": {"value": {"tensor": {"dtype": "DT_FLOAT", "tensorShape": {"dim": [{"size": "1"}, {"size": "1"}, {"size": "24"}, {"size": "136"}]}}}, "dtype": {"type": "DT_FLOAT"}}}, {"name": "faster/conv2/Conv2D_bn_offset", "op": "Const", "attr": {"value": {"tensor": {"dtype": "DT_FLOAT", "tensorShape": {"dim": [{"size": "136"}]}}}, "dtype": {"type": "DT_FLOAT"}}}, {"name": "faster/d6/conv2_1_weights", "op": "Const", "attr": {"dtype": {"type": "DT_FLOAT"}, "value": {"tensor": {"dtype": "DT_FLOAT", "tensorShape": {"dim": [{"size": "3"}, {"size": "3"}, {"size": "136"}, {"size": "1"}]}}}}}, {"name": "faster/d6/conv2_1_bn_offset", "op": "Const", "attr": {"dtype": {"type": "DT_FLOAT"}, "value": {"tensor": {"dtype": "DT_FLOAT", "tensorShape": {"dim": [{"size": "136"}]}}}}}, {"name": "faster/d6/conv3/Conv2D_weights", "op": "Const", "attr": {"value": {"tensor": {"dtype": "DT_FLOAT", "tensorShape": {"dim": [{"size": "1"}, {"size": "1"}, {"size": "136"}, {"size": "48"}]}}}, "dtype": {"type": "DT_FLOAT"}}}, {"name": "faster/d6/conv3/Conv2D_bn_offset", "op": "Const", "attr": {"dtype": {"type": "DT_FLOAT"}, "value": {"tensor": {"dtype": "DT_FLOAT", "tensorShape": {"dim": [{"size": "48"}]}}}}}, {"name": "faster/res6_0/deepwise1/conv1/Conv2D_weights", "op": "Const", "attr": {"dtype": {"type": "DT_FLOAT"}, "value": {"tensor": {"dtype": "DT_FLOAT", "tensorShape": {"dim": [{"size": "1"}, {"size": "1"}, {"size": "48"}, {"size": "224"}]}}}}}, {"name": "faster/res6_0/deepwise1/conv1/Conv2D_bn_offset", "op": "Const", "attr": {"value": {"tensor": {"dtype": "DT_FLOAT", "tensorShape": {"dim": [{"size": "224"}]}}}, "dtype": {"type": "DT_FLOAT"}}}, {"name": "faster/res6_0/deepwise1/conv2_1_weights", "op": "Const", "attr": {"value": {"tensor": {"dtype": "DT_FLOAT", "tensorShape": {"dim": [{"size": "3"}, {"size": "3"}, {"size": "224"}, {"size": "1"}]}}}, "dtype": {"type": "DT_FLOAT"}}}, {"name": "faster/res6_0/deepwise1/conv2_1_bn_offset", "op": "Const", "attr": {"value": {"tensor": {"dtype": "DT_FLOAT", "tensorShape": {"dim": [{"size": "224"}]}}}, "dtype": {"type": "DT_FLOAT"}}}, {"name": "faster/res6_0/deepwise1/conv3/Conv2D_weights", "op": "Const", "attr": {"dtype": {"type": "DT_FLOAT"}, "value": {"tensor": {"dtype": "DT_FLOAT", "tensorShape": {"dim": [{"size": "1"}, {"size": "1"}, {"size": "224"}, {"size": "48"}]}}}}}, {"name": "faster/res6_0/deepwise1/conv3/Conv2D_bn_offset", "op": "Const", "attr": {"dtype": {"type": "DT_FLOAT"}, "value": {"tensor": {"dtype": "DT_FLOAT", "tensorShape": {"dim": [{"size": "48"}]}}}}}, {"name": "faster/res6_1/deepwise1/conv1/Conv2D_weights", "op": "Const", "attr": {"value": {"tensor": {"dtype": "DT_FLOAT", "tensorShape": {"dim": [{"size": "1"}, {"size": "1"}, {"size": "48"}, {"size": "224"}]}}}, "dtype": {"type": "DT_FLOAT"}}}, {"name": "faster/res6_1/deepwise1/conv1/Conv2D_bn_offset", "op": "Const", "attr": {"value": {"tensor": {"dtype": "DT_FLOAT", "tensorShape": {"dim": [{"size": "224"}]}}}, "dtype": {"type": "DT_FLOAT"}}}, {"name": "faster/res6_1/deepwise1/conv2_1_weights", "op": "Const", "attr": {"dtype": {"type": "DT_FLOAT"}, "value": {"tensor": {"dtype": "DT_FLOAT", "tensorShape": {"dim": [{"size": "3"}, {"size": "3"}, {"size": "224"}, {"size": "1"}]}}}}}, {"name": "faster/res6_1/deepwise1/conv2_1_bn_offset", "op": "Const", "attr": {"dtype": {"type": "DT_FLOAT"}, "value": {"tensor": {"dtype": "DT_FLOAT", "tensorShape": {"dim": [{"size": "224"}]}}}}}, {"name": "faster/res6_1/deepwise1/conv3/Conv2D_weights", "op": "Const", "attr": {"dtype": {"type": "DT_FLOAT"}, "value": {"tensor": {"dtype": "DT_FLOAT", "tensorShape": {"dim": [{"size": "1"}, {"size": "1"}, {"size": "224"}, {"size": "48"}]}}}}}, {"name": "faster/res6_1/deepwise1/conv3/Conv2D_bn_offset", "op": "Const", "attr": {"dtype": {"type": "DT_FLOAT"}, "value": {"tensor": {"dtype": "DT_FLOAT", "tensorShape": {"dim": [{"size": "48"}]}}}}}, {"name": "faster/res6_2/deepwise1/conv1/Conv2D_weights", "op": "Const", "attr": {"dtype": {"type": "DT_FLOAT"}, "value": {"tensor": {"dtype": "DT_FLOAT", "tensorShape": {"dim": [{"size": "1"}, {"size": "1"}, {"size": "48"}, {"size": "224"}]}}}}}, {"name": "faster/res6_2/deepwise1/conv1/Conv2D_bn_offset", "op": "Const", "attr": {"value": {"tensor": {"dtype": "DT_FLOAT", "tensorShape": {"dim": [{"size": "224"}]}}}, "dtype": {"type": "DT_FLOAT"}}}, {"name": "faster/res6_2/deepwise1/conv2_1_weights", "op": "Const", "attr": {"dtype": {"type": "DT_FLOAT"}, "value": {"tensor": {"dtype": "DT_FLOAT", "tensorShape": {"dim": [{"size": "3"}, {"size": "3"}, {"size": "224"}, {"size": "1"}]}}}}}, {"name": "faster/res6_2/deepwise1/conv2_1_bn_offset", "op": "Const", "attr": {"value": {"tensor": {"dtype": "DT_FLOAT", "tensorShape": {"dim": [{"size": "224"}]}}}, "dtype": {"type": "DT_FLOAT"}}}, {"name": "faster/res6_2/deepwise1/conv3/Conv2D_weights", "op": "Const", "attr": {"value": {"tensor": {"dtype": "DT_FLOAT", "tensorShape": {"dim": [{"size": "1"}, {"size": "1"}, {"size": "224"}, {"size": "48"}]}}}, "dtype": {"type": "DT_FLOAT"}}}, {"name": "faster/res6_2/deepwise1/conv3/Conv2D_bn_offset", "op": "Const", "attr": {"dtype": {"type": "DT_FLOAT"}, "value": {"tensor": {"dtype": "DT_FLOAT", "tensorShape": {"dim": [{"size": "48"}]}}}}}, {"name": "faster/res6_3/deepwise1/conv1/Conv2D_weights", "op": "Const", "attr": {"value": {"tensor": {"dtype": "DT_FLOAT", "tensorShape": {"dim": [{"size": "1"}, {"size": "1"}, {"size": "48"}, {"size": "224"}]}}}, "dtype": {"type": "DT_FLOAT"}}}, {"name": "faster/res6_3/deepwise1/conv1/Conv2D_bn_offset", "op": "Const", "attr": {"dtype": {"type": "DT_FLOAT"}, "value": {"tensor": {"dtype": "DT_FLOAT", "tensorShape": {"dim": [{"size": "224"}]}}}}}, {"name": "faster/res6_3/deepwise1/conv2_1_weights", "op": "Const", "attr": {"dtype": {"type": "DT_FLOAT"}, "value": {"tensor": {"dtype": "DT_FLOAT", "tensorShape": {"dim": [{"size": "3"}, {"size": "3"}, {"size": "224"}, {"size": "1"}]}}}}}, {"name": "faster/res6_3/deepwise1/conv2_1_bn_offset", "op": "Const", "attr": {"dtype": {"type": "DT_FLOAT"}, "value": {"tensor": {"dtype": "DT_FLOAT", "tensorShape": {"dim": [{"size": "224"}]}}}}}, {"name": "faster/res6_3/deepwise1/conv3/Conv2D_weights", "op": "Const", "attr": {"dtype": {"type": "DT_FLOAT"}, "value": {"tensor": {"dtype": "DT_FLOAT", "tensorShape": {"dim": [{"size": "1"}, {"size": "1"}, {"size": "224"}, {"size": "48"}]}}}}}, {"name": "faster/res6_3/deepwise1/conv3/Conv2D_bn_offset", "op": "Const", "attr": {"dtype": {"type": "DT_FLOAT"}, "value": {"tensor": {"dtype": "DT_FLOAT", "tensorShape": {"dim": [{"size": "48"}]}}}}}, {"name": "faster/res6_4/deepwise1/conv1/Conv2D_weights", "op": "Const", "attr": {"dtype": {"type": "DT_FLOAT"}, "value": {"tensor": {"dtype": "DT_FLOAT", "tensorShape": {"dim": [{"size": "1"}, {"size": "1"}, {"size": "48"}, {"size": "224"}]}}}}}, {"name": "faster/res6_4/deepwise1/conv1/Conv2D_bn_offset", "op": "Const", "attr": {"value": {"tensor": {"dtype": "DT_FLOAT", "tensorShape": {"dim": [{"size": "224"}]}}}, "dtype": {"type": "DT_FLOAT"}}}, {"name": "faster/res6_4/deepwise1/conv2_1_weights", "op": "Const", "attr": {"value": {"tensor": {"dtype": "DT_FLOAT", "tensorShape": {"dim": [{"size": "3"}, {"size": "3"}, {"size": "224"}, {"size": "1"}]}}}, "dtype": {"type": "DT_FLOAT"}}}, {"name": "faster/res6_4/deepwise1/conv2_1_bn_offset", "op": "Const", "attr": {"value": {"tensor": {"dtype": "DT_FLOAT", "tensorShape": {"dim": [{"size": "224"}]}}}, "dtype": {"type": "DT_FLOAT"}}}, {"name": "faster/res6_4/deepwise1/conv3/Conv2D_weights", "op": "Const", "attr": {"value": {"tensor": {"dtype": "DT_FLOAT", "tensorShape": {"dim": [{"size": "1"}, {"size": "1"}, {"size": "224"}, {"size": "48"}]}}}, "dtype": {"type": "DT_FLOAT"}}}, {"name": "faster/res6_4/deepwise1/conv3/Conv2D_bn_offset", "op": "Const", "attr": {"dtype": {"type": "DT_FLOAT"}, "value": {"tensor": {"dtype": "DT_FLOAT", "tensorShape": {"dim": [{"size": "48"}]}}}}}, {"name": "faster/conv3/Conv2D_weights", "op": "Const", "attr": {"dtype": {"type": "DT_FLOAT"}, "value": {"tensor": {"dtype": "DT_FLOAT", "tensorShape": {"dim": [{"size": "1"}, {"size": "1"}, {"size": "48"}, {"size": "96"}]}}}}}, {"name": "faster/conv3/Conv2D_bn_offset", "op": "Const", "attr": {"value": {"tensor": {"dtype": "DT_FLOAT", "tensorShape": {"dim": [{"size": "96"}]}}}, "dtype": {"type": "DT_FLOAT"}}}, {"name": "faster/d7/conv2_1_weights", "op": "Const", "attr": {"dtype": {"type": "DT_FLOAT"}, "value": {"tensor": {"dtype": "DT_FLOAT", "tensorShape": {"dim": [{"size": "5"}, {"size": "5"}, {"size": "96"}, {"size": "1"}]}}}}}, {"name": "faster/d7/conv2_1_bn_offset", "op": "Const", "attr": {"value": {"tensor": {"dtype": "DT_FLOAT", "tensorShape": {"dim": [{"size": "96"}]}}}, "dtype": {"type": "DT_FLOAT"}}}, {"name": "faster/d7/conv3/Conv2D_weights", "op": "Const", "attr": {"dtype": {"type": "DT_FLOAT"}, "value": {"tensor": {"dtype": "DT_FLOAT", "tensorShape": {"dim": [{"size": "1"}, {"size": "1"}, {"size": "96"}, {"size": "128"}]}}}}}, {"name": "faster/d7/conv3/Conv2D_bn_offset", "op": "Const", "attr": {"dtype": {"type": "DT_FLOAT"}, "value": {"tensor": {"dtype": "DT_FLOAT", "tensorShape": {"dim": [{"size": "128"}]}}}}}, {"name": "faster/d8/conv2_1_weights", "op": "Const", "attr": {"dtype": {"type": "DT_FLOAT"}, "value": {"tensor": {"dtype": "DT_FLOAT", "tensorShape": {"dim": [{"size": "5"}, {"size": "5"}, {"size": "128"}, {"size": "1"}]}}}}}, {"name": "faster/d8/conv2_1_bn_offset", "op": "Const", "attr": {"dtype": {"type": "DT_FLOAT"}, "value": {"tensor": {"dtype": "DT_FLOAT", "tensorShape": {"dim": [{"size": "128"}]}}}}}, {"name": "conv5/Conv2D_weights", "op": "Const", "attr": {"dtype": {"type": "DT_FLOAT"}, "value": {"tensor": {"dtype": "DT_FLOAT", "tensorShape": {"dim": [{"size": "1"}, {"size": "1"}, {"size": "232"}, {"size": "96"}]}}}}}, {"name": "conv5/Conv2D_bn_offset", "op": "Const", "attr": {"dtype": {"type": "DT_FLOAT"}, "value": {"tensor": {"dtype": "DT_FLOAT", "tensorShape": {"dim": [{"size": "96"}]}}}}}, {"name": "faster/d8/conv3/Conv2D_weights", "op": "Const", "attr": {"value": {"tensor": {"dtype": "DT_FLOAT", "tensorShape": {"dim": [{"size": "1"}, {"size": "1"}, {"size": "128"}, {"size": "128"}]}}}, "dtype": {"type": "DT_FLOAT"}}}, {"name": "faster/d8/conv3/Conv2D_bn_offset", "op": "Const", "attr": {"value": {"tensor": {"dtype": "DT_FLOAT", "tensorShape": {"dim": [{"size": "128"}]}}}, "dtype": {"type": "DT_FLOAT"}}}, {"name": "d9/conv2_1_weights", "op": "Const", "attr": {"value": {"tensor": {"dtype": "DT_FLOAT", "tensorShape": {"dim": [{"size": "5"}, {"size": "5"}, {"size": "96"}, {"size": "1"}]}}}, "dtype": {"type": "DT_FLOAT"}}}, {"name": "d9/conv2_1_bn_offset", "op": "Const", "attr": {"dtype": {"type": "DT_FLOAT"}, "value": {"tensor": {"dtype": "DT_FLOAT", "tensorShape": {"dim": [{"size": "96"}]}}}}}, {"name": "d9/conv3/Conv2D_weights", "op": "Const", "attr": {"value": {"tensor": {"dtype": "DT_FLOAT", "tensorShape": {"dim": [{"size": "1"}, {"size": "1"}, {"size": "96"}, {"size": "96"}]}}}, "dtype": {"type": "DT_FLOAT"}}}, {"name": "d9/conv3/Conv2D_bn_offset", "op": "Const", "attr": {"value": {"tensor": {"dtype": "DT_FLOAT", "tensorShape": {"dim": [{"size": "96"}]}}}, "dtype": {"type": "DT_FLOAT"}}}, {"name": "d10/conv2_1_weights", "op": "Const", "attr": {"value": {"tensor": {"dtype": "DT_FLOAT", "tensorShape": {"dim": [{"size": "5"}, {"size": "5"}, {"size": "96"}, {"size": "1"}]}}}, "dtype": {"type": "DT_FLOAT"}}}, {"name": "d10/conv2_1_bn_offset", "op": "Const", "attr": {"value": {"tensor": {"dtype": "DT_FLOAT", "tensorShape": {"dim": [{"size": "96"}]}}}, "dtype": {"type": "DT_FLOAT"}}}, {"name": "d10/conv3/Conv2D_weights", "op": "Const", "attr": {"dtype": {"type": "DT_FLOAT"}, "value": {"tensor": {"dtype": "DT_FLOAT", "tensorShape": {"dim": [{"size": "1"}, {"size": "1"}, {"size": "96"}, {"size": "96"}]}}}}}, {"name": "d10/conv3/Conv2D_bn_offset", "op": "Const", "attr": {"value": {"tensor": {"dtype": "DT_FLOAT", "tensorShape": {"dim": [{"size": "96"}]}}}, "dtype": {"type": "DT_FLOAT"}}}, {"name": "ConstantFolding/pred_lbbox/truediv_1_recip", "op": "Reciprocal", "input": ["pred_lbbox/truediv_1/y"], "attr": {"T": {"type": "DT_FLOAT"}}}, {"name": "ConstantFolding/pred_sbbox/truediv_1_recip", "op": "Reciprocal", "input": ["pred_sbbox/truediv_1/y"], "attr": {"T": {"type": "DT_FLOAT"}}}, {"name": "faster/conv0/Pad", "op": "Pad", "input": ["input/input_data", "faster/conv0/Const"], "attr": {"T": {"type": "DT_FLOAT"}, "Tpaddings": {"type": "DT_INT32"}}}, {"name": "faster/conv0/Conv2D", "op": "Conv2D", "input": ["faster/conv0/Pad", "faster/conv0/Conv2D_weights"], "device": "/device:CPU:0", "attr": {"use_cudnn_on_gpu": {"b": true}, "explicit_paddings": {"list": {}}, "strides": {"list": {"i": ["1", "2", "2", "1"]}}, "padding": {"s": "VkFMSUQ="}, "T": {"type": "DT_FLOAT"}, "data_format": {"s": "TkhXQw=="}, "dilations": {"list": {"i": ["1", "1", "1", "1"]}}}}, {"name": "faster/conv0/batch_normalization/FusedBatchNormV3", "op": "BiasAdd", "input": ["faster/conv0/Conv2D", "faster/conv0/Conv2D_bn_offset"], "attr": {"T": {"type": "DT_FLOAT"}, "data_format": {"s": "TkhXQw=="}}}, {"name": "faster/conv0/Relu", "op": "Relu", "input": ["faster/conv0/batch_normalization/FusedBatchNormV3"], "attr": {"T": {"type": "DT_FLOAT"}}}, {"name": "faster/d1/conv1/Conv2D", "op": "Conv2D", "input": ["faster/conv0/Relu", "faster/d1/conv1/Conv2D_weights"], "device": "/device:CPU:0", "attr": {"explicit_paddings": {"list": {}}, "strides": {"list": {"i": ["1", "1", "1", "1"]}}, "data_format": {"s": "TkhXQw=="}, "use_cudnn_on_gpu": {"b": true}, "padding": {"s": "U0FNRQ=="}, "dilations": {"list": {"i": ["1", "1", "1", "1"]}}, "T": {"type": "DT_FLOAT"}}}, {"name": "faster/d1/conv1/batch_normalization/FusedBatchNormV3", "op": "BiasAdd", "input": ["faster/d1/conv1/Conv2D", "faster/d1/conv1/Conv2D_bn_offset"], "attr": {"data_format": {"s": "TkhXQw=="}, "T": {"type": "DT_FLOAT"}}}, {"name": "faster/d1/conv1/Relu", "op": "Relu", "input": ["faster/d1/conv1/batch_normalization/FusedBatchNormV3"], "attr": {"T": {"type": "DT_FLOAT"}}}, {"name": "faster/d1/conv2_1", "op": "FusedDepthwiseConv2dNative", "input": ["faster/d1/conv1/Relu", "faster/d1/conv2_1_weights", "faster/d1/conv2_1_bn_offset"], "attr": {"explicit_paddings": {"list": {}}, "fused_ops": {"list": {"s": ["Qmlhc0FkZA==", "UmVsdQ=="]}}, "strides": {"list": {"i": ["1", "1", "1", "1"]}}, "dilations": {"list": {"i": ["1", "1", "1", "1"]}}, "T": {"type": "DT_FLOAT"}, "num_args": {"i": "1"}, "data_format": {"s": "TkhXQw=="}, "padding": {"s": "U0FNRQ=="}}}, {"name": "faster/d1/conv3/Conv2D", "op": "Conv2D", "input": ["faster/d1/conv2_1", "faster/d1/conv3/Conv2D_weights"], "device": "/device:CPU:0", "attr": {"T": {"type": "DT_FLOAT"}, "strides": {"list": {"i": ["1", "1", "1", "1"]}}, "padding": {"s": "U0FNRQ=="}, "dilations": {"list": {"i": ["1", "1", "1", "1"]}}, "data_format": {"s": "TkhXQw=="}, "use_cudnn_on_gpu": {"b": true}, "explicit_paddings": {"list": {}}}}, {"name": "faster/d1/conv3/batch_normalization/FusedBatchNormV3", "op": "BiasAdd", "input": ["faster/d1/conv3/Conv2D", "faster/d1/conv3/Conv2D_bn_offset"], "attr": {"data_format": {"s": "TkhXQw=="}, "T": {"type": "DT_FLOAT"}}}, {"name": "faster/res1/deepwise1/conv1/Conv2D", "op": "Conv2D", "input": ["faster/d1/conv3/batch_normalization/FusedBatchNormV3", "faster/res1/deepwise1/conv1/Conv2D_weights"], "device": "/device:CPU:0", "attr": {"dilations": {"list": {"i": ["1", "1", "1", "1"]}}, "data_format": {"s": "TkhXQw=="}, "strides": {"list": {"i": ["1", "1", "1", "1"]}}, "padding": {"s": "U0FNRQ=="}, "use_cudnn_on_gpu": {"b": true}, "T": {"type": "DT_FLOAT"}, "explicit_paddings": {"list": {}}}}, {"name": "faster/res1/deepwise1/conv1/batch_normalization/FusedBatchNormV3", "op": "BiasAdd", "input": ["faster/res1/deepwise1/conv1/Conv2D", "faster/res1/deepwise1/conv1/Conv2D_bn_offset"], "attr": {"T": {"type": "DT_FLOAT"}, "data_format": {"s": "TkhXQw=="}}}, {"name": "faster/res1/deepwise1/conv1/Relu", "op": "Relu", "input": ["faster/res1/deepwise1/conv1/batch_normalization/FusedBatchNormV3"], "attr": {"T": {"type": "DT_FLOAT"}}}, {"name": "faster/res1/deepwise1/conv2_1", "op": "FusedDepthwiseConv2dNative", "input": ["faster/res1/deepwise1/conv1/Relu", "faster/res1/deepwise1/conv2_1_weights", "faster/res1/deepwise1/conv2_1_bn_offset"], "attr": {"fused_ops": {"list": {"s": ["Qmlhc0FkZA==", "UmVsdQ=="]}}, "dilations": {"list": {"i": ["1", "1", "1", "1"]}}, "T": {"type": "DT_FLOAT"}, "data_format": {"s": "TkhXQw=="}, "explicit_paddings": {"list": {}}, "padding": {"s": "U0FNRQ=="}, "strides": {"list": {"i": ["1", "1", "1", "1"]}}, "num_args": {"i": "1"}}}, {"name": "faster/res1/deepwise1/conv3/Conv2D", "op": "Conv2D", "input": ["faster/res1/deepwise1/conv2_1", "faster/res1/deepwise1/conv3/Conv2D_weights"], "device": "/device:CPU:0", "attr": {"data_format": {"s": "TkhXQw=="}, "padding": {"s": "U0FNRQ=="}, "dilations": {"list": {"i": ["1", "1", "1", "1"]}}, "explicit_paddings": {"list": {}}, "strides": {"list": {"i": ["1", "1", "1", "1"]}}, "T": {"type": "DT_FLOAT"}, "use_cudnn_on_gpu": {"b": true}}}, {"name": "faster/res1/deepwise1/conv3/batch_normalization/FusedBatchNormV3", "op": "BiasAdd", "input": ["faster/res1/deepwise1/conv3/Conv2D", "faster/res1/deepwise1/conv3/Conv2D_bn_offset"], "attr": {"T": {"type": "DT_FLOAT"}, "data_format": {"s": "TkhXQw=="}}}, {"name": "faster/res1/add", "op": "AddV2", "input": ["faster/res1/deepwise1/conv3/batch_normalization/FusedBatchNormV3", "faster/d1/conv3/batch_normalization/FusedBatchNormV3"], "attr": {"T": {"type": "DT_FLOAT"}}}, {"name": "faster/d2/conv1/Conv2D", "op": "Conv2D", "input": ["faster/res1/add", "faster/d2/conv1/Conv2D_weights"], "device": "/device:CPU:0", "attr": {"T": {"type": "DT_FLOAT"}, "strides": {"list": {"i": ["1", "1", "1", "1"]}}, "explicit_paddings": {"list": {}}, "data_format": {"s": "TkhXQw=="}, "padding": {"s": "U0FNRQ=="}, "use_cudnn_on_gpu": {"b": true}, "dilations": {"list": {"i": ["1", "1", "1", "1"]}}}}, {"name": "faster/d2/conv1/batch_normalization/FusedBatchNormV3", "op": "BiasAdd", "input": ["faster/d2/conv1/Conv2D", "faster/d2/conv1/Conv2D_bn_offset"], "attr": {"T": {"type": "DT_FLOAT"}, "data_format": {"s": "TkhXQw=="}}}, {"name": "faster/d2/conv1/Relu", "op": "Relu", "input": ["faster/d2/conv1/batch_normalization/FusedBatchNormV3"], "attr": {"T": {"type": "DT_FLOAT"}}}, {"name": "faster/d2/Pad", "op": "Pad", "input": ["faster/d2/conv1/Relu", "faster/d2/Const"], "attr": {"T": {"type": "DT_FLOAT"}, "Tpaddings": {"type": "DT_INT32"}}}, {"name": "faster/d2/conv2_1", "op": "FusedDepthwiseConv2dNative", "input": ["faster/d2/Pad", "faster/d2/conv2_1_weights", "faster/d2/conv2_1_bn_offset"], "attr": {"padding": {"s": "VkFMSUQ="}, "dilations": {"list": {"i": ["1", "1", "1", "1"]}}, "num_args": {"i": "1"}, "fused_ops": {"list": {"s": ["Qmlhc0FkZA==", "UmVsdQ=="]}}, "strides": {"list": {"i": ["1", "2", "2", "1"]}}, "T": {"type": "DT_FLOAT"}, "explicit_paddings": {"list": {}}, "data_format": {"s": "TkhXQw=="}}}, {"name": "faster/d2/conv3/Conv2D", "op": "Conv2D", "input": ["faster/d2/conv2_1", "faster/d2/conv3/Conv2D_weights"], "device": "/device:CPU:0", "attr": {"dilations": {"list": {"i": ["1", "1", "1", "1"]}}, "explicit_paddings": {"list": {}}, "T": {"type": "DT_FLOAT"}, "data_format": {"s": "TkhXQw=="}, "strides": {"list": {"i": ["1", "1", "1", "1"]}}, "padding": {"s": "U0FNRQ=="}, "use_cudnn_on_gpu": {"b": true}}}, {"name": "faster/d2/conv3/batch_normalization/FusedBatchNormV3", "op": "BiasAdd", "input": ["faster/d2/conv3/Conv2D", "faster/d2/conv3/Conv2D_bn_offset"], "attr": {"T": {"type": "DT_FLOAT"}, "data_format": {"s": "TkhXQw=="}}}, {"name": "faster/res2_0/deepwise1/conv1/Conv2D", "op": "Conv2D", "input": ["faster/d2/conv3/batch_normalization/FusedBatchNormV3", "faster/res2_0/deepwise1/conv1/Conv2D_weights"], "device": "/device:CPU:0", "attr": {"data_format": {"s": "TkhXQw=="}, "strides": {"list": {"i": ["1", "1", "1", "1"]}}, "explicit_paddings": {"list": {}}, "T": {"type": "DT_FLOAT"}, "padding": {"s": "U0FNRQ=="}, "use_cudnn_on_gpu": {"b": true}, "dilations": {"list": {"i": ["1", "1", "1", "1"]}}}}, {"name": "faster/res2_0/deepwise1/conv1/batch_normalization/FusedBatchNormV3", "op": "BiasAdd", "input": ["faster/res2_0/deepwise1/conv1/Conv2D", "faster/res2_0/deepwise1/conv1/Conv2D_bn_offset"], "attr": {"T": {"type": "DT_FLOAT"}, "data_format": {"s": "TkhXQw=="}}}, {"name": "faster/res2_0/deepwise1/conv1/Relu", "op": "Relu", "input": ["faster/res2_0/deepwise1/conv1/batch_normalization/FusedBatchNormV3"], "attr": {"T": {"type": "DT_FLOAT"}}}, {"name": "faster/res2_0/deepwise1/conv2_1", "op": "FusedDepthwiseConv2dNative", "input": ["faster/res2_0/deepwise1/conv1/Relu", "faster/res2_0/deepwise1/conv2_1_weights", "faster/res2_0/deepwise1/conv2_1_bn_offset"], "attr": {"T": {"type": "DT_FLOAT"}, "explicit_paddings": {"list": {}}, "dilations": {"list": {"i": ["1", "1", "1", "1"]}}, "fused_ops": {"list": {"s": ["Qmlhc0FkZA==", "UmVsdQ=="]}}, "num_args": {"i": "1"}, "padding": {"s": "U0FNRQ=="}, "data_format": {"s": "TkhXQw=="}, "strides": {"list": {"i": ["1", "1", "1", "1"]}}}}, {"name": "faster/res2_0/deepwise1/conv3/Conv2D", "op": "Conv2D", "input": ["faster/res2_0/deepwise1/conv2_1", "faster/res2_0/deepwise1/conv3/Conv2D_weights"], "device": "/device:CPU:0", "attr": {"T": {"type": "DT_FLOAT"}, "use_cudnn_on_gpu": {"b": true}, "padding": {"s": "U0FNRQ=="}, "data_format": {"s": "TkhXQw=="}, "dilations": {"list": {"i": ["1", "1", "1", "1"]}}, "explicit_paddings": {"list": {}}, "strides": {"list": {"i": ["1", "1", "1", "1"]}}}}, {"name": "faster/res2_0/deepwise1/conv3/batch_normalization/FusedBatchNormV3", "op": "BiasAdd", "input": ["faster/res2_0/deepwise1/conv3/Conv2D", "faster/res2_0/deepwise1/conv3/Conv2D_bn_offset"], "attr": {"data_format": {"s": "TkhXQw=="}, "T": {"type": "DT_FLOAT"}}}, {"name": "faster/res2_0/add", "op": "AddV2", "input": ["faster/res2_0/deepwise1/conv3/batch_normalization/FusedBatchNormV3", "faster/d2/conv3/batch_normalization/FusedBatchNormV3"], "attr": {"T": {"type": "DT_FLOAT"}}}, {"name": "faster/res2_1/deepwise1/conv1/Conv2D", "op": "Conv2D", "input": ["faster/res2_0/add", "faster/res2_1/deepwise1/conv1/Conv2D_weights"], "device": "/device:CPU:0", "attr": {"dilations": {"list": {"i": ["1", "1", "1", "1"]}}, "use_cudnn_on_gpu": {"b": true}, "explicit_paddings": {"list": {}}, "strides": {"list": {"i": ["1", "1", "1", "1"]}}, "padding": {"s": "U0FNRQ=="}, "T": {"type": "DT_FLOAT"}, "data_format": {"s": "TkhXQw=="}}}, {"name": "faster/res2_1/deepwise1/conv1/batch_normalization/FusedBatchNormV3", "op": "BiasAdd", "input": ["faster/res2_1/deepwise1/conv1/Conv2D", "faster/res2_1/deepwise1/conv1/Conv2D_bn_offset"], "attr": {"T": {"type": "DT_FLOAT"}, "data_format": {"s": "TkhXQw=="}}}, {"name": "faster/res2_1/deepwise1/conv1/Relu", "op": "Relu", "input": ["faster/res2_1/deepwise1/conv1/batch_normalization/FusedBatchNormV3"], "attr": {"T": {"type": "DT_FLOAT"}}}, {"name": "faster/res2_1/deepwise1/conv2_1", "op": "FusedDepthwiseConv2dNative", "input": ["faster/res2_1/deepwise1/conv1/Relu", "faster/res2_1/deepwise1/conv2_1_weights", "faster/res2_1/deepwise1/conv2_1_bn_offset"], "attr": {"dilations": {"list": {"i": ["1", "1", "1", "1"]}}, "padding": {"s": "U0FNRQ=="}, "T": {"type": "DT_FLOAT"}, "data_format": {"s": "TkhXQw=="}, "strides": {"list": {"i": ["1", "1", "1", "1"]}}, "explicit_paddings": {"list": {}}, "num_args": {"i": "1"}, "fused_ops": {"list": {"s": ["Qmlhc0FkZA==", "UmVsdQ=="]}}}}, {"name": "faster/res2_1/deepwise1/conv3/Conv2D", "op": "Conv2D", "input": ["faster/res2_1/deepwise1/conv2_1", "faster/res2_1/deepwise1/conv3/Conv2D_weights"], "device": "/device:CPU:0", "attr": {"use_cudnn_on_gpu": {"b": true}, "padding": {"s": "U0FNRQ=="}, "explicit_paddings": {"list": {}}, "data_format": {"s": "TkhXQw=="}, "strides": {"list": {"i": ["1", "1", "1", "1"]}}, "T": {"type": "DT_FLOAT"}, "dilations": {"list": {"i": ["1", "1", "1", "1"]}}}}, {"name": "faster/res2_1/deepwise1/conv3/batch_normalization/FusedBatchNormV3", "op": "BiasAdd", "input": ["faster/res2_1/deepwise1/conv3/Conv2D", "faster/res2_1/deepwise1/conv3/Conv2D_bn_offset"], "attr": {"T": {"type": "DT_FLOAT"}, "data_format": {"s": "TkhXQw=="}}}, {"name": "faster/res2_1/add", "op": "AddV2", "input": ["faster/res2_1/deepwise1/conv3/batch_normalization/FusedBatchNormV3", "faster/res2_0/add"], "attr": {"T": {"type": "DT_FLOAT"}}}, {"name": "faster/d3/conv1/Conv2D", "op": "Conv2D", "input": ["faster/res2_1/add", "faster/d3/conv1/Conv2D_weights"], "device": "/device:CPU:0", "attr": {"explicit_paddings": {"list": {}}, "strides": {"list": {"i": ["1", "1", "1", "1"]}}, "data_format": {"s": "TkhXQw=="}, "use_cudnn_on_gpu": {"b": true}, "dilations": {"list": {"i": ["1", "1", "1", "1"]}}, "T": {"type": "DT_FLOAT"}, "padding": {"s": "U0FNRQ=="}}}, {"name": "faster/d3/conv1/batch_normalization/FusedBatchNormV3", "op": "BiasAdd", "input": ["faster/d3/conv1/Conv2D", "faster/d3/conv1/Conv2D_bn_offset"], "attr": {"T": {"type": "DT_FLOAT"}, "data_format": {"s": "TkhXQw=="}}}, {"name": "faster/d3/conv1/Relu", "op": "Relu", "input": ["faster/d3/conv1/batch_normalization/FusedBatchNormV3"], "attr": {"T": {"type": "DT_FLOAT"}}}, {"name": "faster/d3/Pad", "op": "Pad", "input": ["faster/d3/conv1/Relu", "faster/d3/Const"], "attr": {"Tpaddings": {"type": "DT_INT32"}, "T": {"type": "DT_FLOAT"}}}, {"name": "faster/d3/conv2_1", "op": "FusedDepthwiseConv2dNative", "input": ["faster/d3/Pad", "faster/d3/conv2_1_weights", "faster/d3/conv2_1_bn_offset"], "attr": {"padding": {"s": "VkFMSUQ="}, "dilations": {"list": {"i": ["1", "1", "1", "1"]}}, "fused_ops": {"list": {"s": ["Qmlhc0FkZA==", "UmVsdQ=="]}}, "T": {"type": "DT_FLOAT"}, "num_args": {"i": "1"}, "strides": {"list": {"i": ["1", "2", "2", "1"]}}, "explicit_paddings": {"list": {}}, "data_format": {"s": "TkhXQw=="}}}, {"name": "faster/d3/conv3/Conv2D", "op": "Conv2D", "input": ["faster/d3/conv2_1", "faster/d3/conv3/Conv2D_weights"], "device": "/device:CPU:0", "attr": {"padding": {"s": "U0FNRQ=="}, "dilations": {"list": {"i": ["1", "1", "1", "1"]}}, "data_format": {"s": "TkhXQw=="}, "use_cudnn_on_gpu": {"b": true}, "explicit_paddings": {"list": {}}, "T": {"type": "DT_FLOAT"}, "strides": {"list": {"i": ["1", "1", "1", "1"]}}}}, {"name": "faster/d3/conv3/batch_normalization/FusedBatchNormV3", "op": "BiasAdd", "input": ["faster/d3/conv3/Conv2D", "faster/d3/conv3/Conv2D_bn_offset"], "attr": {"T": {"type": "DT_FLOAT"}, "data_format": {"s": "TkhXQw=="}}}, {"name": "faster/res3_0/deepwise1/conv1/Conv2D", "op": "Conv2D", "input": ["faster/d3/conv3/batch_normalization/FusedBatchNormV3", "faster/res3_0/deepwise1/conv1/Conv2D_weights"], "device": "/device:CPU:0", "attr": {"padding": {"s": "U0FNRQ=="}, "use_cudnn_on_gpu": {"b": true}, "dilations": {"list": {"i": ["1", "1", "1", "1"]}}, "T": {"type": "DT_FLOAT"}, "data_format": {"s": "TkhXQw=="}, "explicit_paddings": {"list": {}}, "strides": {"list": {"i": ["1", "1", "1", "1"]}}}}, {"name": "faster/res3_0/deepwise1/conv1/batch_normalization/FusedBatchNormV3", "op": "BiasAdd", "input": ["faster/res3_0/deepwise1/conv1/Conv2D", "faster/res3_0/deepwise1/conv1/Conv2D_bn_offset"], "attr": {"data_format": {"s": "TkhXQw=="}, "T": {"type": "DT_FLOAT"}}}, {"name": "faster/res3_0/deepwise1/conv1/Relu", "op": "Relu", "input": ["faster/res3_0/deepwise1/conv1/batch_normalization/FusedBatchNormV3"], "attr": {"T": {"type": "DT_FLOAT"}}}, {"name": "faster/res3_0/deepwise1/conv2_1", "op": "FusedDepthwiseConv2dNative", "input": ["faster/res3_0/deepwise1/conv1/Relu", "faster/res3_0/deepwise1/conv2_1_weights", "faster/res3_0/deepwise1/conv2_1_bn_offset"], "attr": {"dilations": {"list": {"i": ["1", "1", "1", "1"]}}, "padding": {"s": "U0FNRQ=="}, "data_format": {"s": "TkhXQw=="}, "fused_ops": {"list": {"s": ["Qmlhc0FkZA==", "UmVsdQ=="]}}, "T": {"type": "DT_FLOAT"}, "explicit_paddings": {"list": {}}, "num_args": {"i": "1"}, "strides": {"list": {"i": ["1", "1", "1", "1"]}}}}, {"name": "faster/res3_0/deepwise1/conv3/Conv2D", "op": "Conv2D", "input": ["faster/res3_0/deepwise1/conv2_1", "faster/res3_0/deepwise1/conv3/Conv2D_weights"], "device": "/device:CPU:0", "attr": {"strides": {"list": {"i": ["1", "1", "1", "1"]}}, "data_format": {"s": "TkhXQw=="}, "dilations": {"list": {"i": ["1", "1", "1", "1"]}}, "use_cudnn_on_gpu": {"b": true}, "explicit_paddings": {"list": {}}, "T": {"type": "DT_FLOAT"}, "padding": {"s": "U0FNRQ=="}}}, {"name": "faster/res3_0/deepwise1/conv3/batch_normalization/FusedBatchNormV3", "op": "BiasAdd", "input": ["faster/res3_0/deepwise1/conv3/Conv2D", "faster/res3_0/deepwise1/conv3/Conv2D_bn_offset"], "attr": {"data_format": {"s": "TkhXQw=="}, "T": {"type": "DT_FLOAT"}}}, {"name": "faster/res3_0/add", "op": "AddV2", "input": ["faster/res3_0/deepwise1/conv3/batch_normalization/FusedBatchNormV3", "faster/d3/conv3/batch_normalization/FusedBatchNormV3"], "attr": {"T": {"type": "DT_FLOAT"}}}, {"name": "faster/res3_1/deepwise1/conv1/Conv2D", "op": "Conv2D", "input": ["faster/res3_0/add", "faster/res3_1/deepwise1/conv1/Conv2D_weights"], "device": "/device:CPU:0", "attr": {"padding": {"s": "U0FNRQ=="}, "use_cudnn_on_gpu": {"b": true}, "strides": {"list": {"i": ["1", "1", "1", "1"]}}, "data_format": {"s": "TkhXQw=="}, "T": {"type": "DT_FLOAT"}, "explicit_paddings": {"list": {}}, "dilations": {"list": {"i": ["1", "1", "1", "1"]}}}}, {"name": "faster/res3_1/deepwise1/conv1/batch_normalization/FusedBatchNormV3", "op": "BiasAdd", "input": ["faster/res3_1/deepwise1/conv1/Conv2D", "faster/res3_1/deepwise1/conv1/Conv2D_bn_offset"], "attr": {"T": {"type": "DT_FLOAT"}, "data_format": {"s": "TkhXQw=="}}}, {"name": "faster/res3_1/deepwise1/conv1/Relu", "op": "Relu", "input": ["faster/res3_1/deepwise1/conv1/batch_normalization/FusedBatchNormV3"], "attr": {"T": {"type": "DT_FLOAT"}}}, {"name": "faster/res3_1/deepwise1/conv2_1", "op": "FusedDepthwiseConv2dNative", "input": ["faster/res3_1/deepwise1/conv1/Relu", "faster/res3_1/deepwise1/conv2_1_weights", "faster/res3_1/deepwise1/conv2_1_bn_offset"], "attr": {"explicit_paddings": {"list": {}}, "data_format": {"s": "TkhXQw=="}, "fused_ops": {"list": {"s": ["Qmlhc0FkZA==", "UmVsdQ=="]}}, "padding": {"s": "U0FNRQ=="}, "T": {"type": "DT_FLOAT"}, "dilations": {"list": {"i": ["1", "1", "1", "1"]}}, "num_args": {"i": "1"}, "strides": {"list": {"i": ["1", "1", "1", "1"]}}}}, {"name": "faster/res3_1/deepwise1/conv3/Conv2D", "op": "Conv2D", "input": ["faster/res3_1/deepwise1/conv2_1", "faster/res3_1/deepwise1/conv3/Conv2D_weights"], "device": "/device:CPU:0", "attr": {"data_format": {"s": "TkhXQw=="}, "explicit_paddings": {"list": {}}, "use_cudnn_on_gpu": {"b": true}, "strides": {"list": {"i": ["1", "1", "1", "1"]}}, "padding": {"s": "U0FNRQ=="}, "T": {"type": "DT_FLOAT"}, "dilations": {"list": {"i": ["1", "1", "1", "1"]}}}}, {"name": "faster/res3_1/deepwise1/conv3/batch_normalization/FusedBatchNormV3", "op": "BiasAdd", "input": ["faster/res3_1/deepwise1/conv3/Conv2D", "faster/res3_1/deepwise1/conv3/Conv2D_bn_offset"], "attr": {"T": {"type": "DT_FLOAT"}, "data_format": {"s": "TkhXQw=="}}}, {"name": "faster/res3_1/add", "op": "AddV2", "input": ["faster/res3_1/deepwise1/conv3/batch_normalization/FusedBatchNormV3", "faster/res3_0/add"], "attr": {"T": {"type": "DT_FLOAT"}}}, {"name": "faster/d4/conv1/Conv2D", "op": "Conv2D", "input": ["faster/res3_1/add", "faster/d4/conv1/Conv2D_weights"], "device": "/device:CPU:0", "attr": {"explicit_paddings": {"list": {}}, "strides": {"list": {"i": ["1", "1", "1", "1"]}}, "data_format": {"s": "TkhXQw=="}, "use_cudnn_on_gpu": {"b": true}, "padding": {"s": "U0FNRQ=="}, "dilations": {"list": {"i": ["1", "1", "1", "1"]}}, "T": {"type": "DT_FLOAT"}}}, {"name": "faster/d4/conv1/batch_normalization/FusedBatchNormV3", "op": "BiasAdd", "input": ["faster/d4/conv1/Conv2D", "faster/d4/conv1/Conv2D_bn_offset"], "attr": {"data_format": {"s": "TkhXQw=="}, "T": {"type": "DT_FLOAT"}}}, {"name": "faster/d4/conv1/Relu", "op": "Relu", "input": ["faster/d4/conv1/batch_normalization/FusedBatchNormV3"], "attr": {"T": {"type": "DT_FLOAT"}}}, {"name": "faster/d4/conv2_1", "op": "FusedDepthwiseConv2dNative", "input": ["faster/d4/conv1/Relu", "faster/d4/conv2_1_weights", "faster/d4/conv2_1_bn_offset"], "attr": {"data_format": {"s": "TkhXQw=="}, "strides": {"list": {"i": ["1", "1", "1", "1"]}}, "T": {"type": "DT_FLOAT"}, "num_args": {"i": "1"}, "dilations": {"list": {"i": ["1", "1", "1", "1"]}}, "padding": {"s": "U0FNRQ=="}, "explicit_paddings": {"list": {}}, "fused_ops": {"list": {"s": ["Qmlhc0FkZA==", "UmVsdQ=="]}}}}, {"name": "faster/d4/conv3/Conv2D", "op": "Conv2D", "input": ["faster/d4/conv2_1", "faster/d4/conv3/Conv2D_weights"], "device": "/device:CPU:0", "attr": {"use_cudnn_on_gpu": {"b": true}, "dilations": {"list": {"i": ["1", "1", "1", "1"]}}, "data_format": {"s": "TkhXQw=="}, "padding": {"s": "U0FNRQ=="}, "strides": {"list": {"i": ["1", "1", "1", "1"]}}, "explicit_paddings": {"list": {}}, "T": {"type": "DT_FLOAT"}}}, {"name": "faster/d4/conv3/batch_normalization/FusedBatchNormV3", "op": "BiasAdd", "input": ["faster/d4/conv3/Conv2D", "faster/d4/conv3/Conv2D_bn_offset"], "attr": {"T": {"type": "DT_FLOAT"}, "data_format": {"s": "TkhXQw=="}}}, {"name": "faster/res4_0/deepwise1/conv1/Conv2D", "op": "Conv2D", "input": ["faster/d4/conv3/batch_normalization/FusedBatchNormV3", "faster/res4_0/deepwise1/conv1/Conv2D_weights"], "device": "/device:CPU:0", "attr": {"data_format": {"s": "TkhXQw=="}, "use_cudnn_on_gpu": {"b": true}, "strides": {"list": {"i": ["1", "1", "1", "1"]}}, "T": {"type": "DT_FLOAT"}, "explicit_paddings": {"list": {}}, "padding": {"s": "U0FNRQ=="}, "dilations": {"list": {"i": ["1", "1", "1", "1"]}}}}, {"name": "faster/res4_0/deepwise1/conv1/batch_normalization/FusedBatchNormV3", "op": "BiasAdd", "input": ["faster/res4_0/deepwise1/conv1/Conv2D", "faster/res4_0/deepwise1/conv1/Conv2D_bn_offset"], "attr": {"T": {"type": "DT_FLOAT"}, "data_format": {"s": "TkhXQw=="}}}, {"name": "faster/res4_0/deepwise1/conv1/Relu", "op": "Relu", "input": ["faster/res4_0/deepwise1/conv1/batch_normalization/FusedBatchNormV3"], "attr": {"T": {"type": "DT_FLOAT"}}}, {"name": "faster/res4_0/deepwise1/conv2_1", "op": "FusedDepthwiseConv2dNative", "input": ["faster/res4_0/deepwise1/conv1/Relu", "faster/res4_0/deepwise1/conv2_1_weights", "faster/res4_0/deepwise1/conv2_1_bn_offset"], "attr": {"strides": {"list": {"i": ["1", "1", "1", "1"]}}, "num_args": {"i": "1"}, "dilations": {"list": {"i": ["1", "1", "1", "1"]}}, "T": {"type": "DT_FLOAT"}, "data_format": {"s": "TkhXQw=="}, "fused_ops": {"list": {"s": ["Qmlhc0FkZA==", "UmVsdQ=="]}}, "padding": {"s": "U0FNRQ=="}, "explicit_paddings": {"list": {}}}}, {"name": "faster/res4_0/deepwise1/conv3/Conv2D", "op": "Conv2D", "input": ["faster/res4_0/deepwise1/conv2_1", "faster/res4_0/deepwise1/conv3/Conv2D_weights"], "device": "/device:CPU:0", "attr": {"use_cudnn_on_gpu": {"b": true}, "padding": {"s": "U0FNRQ=="}, "strides": {"list": {"i": ["1", "1", "1", "1"]}}, "explicit_paddings": {"list": {}}, "data_format": {"s": "TkhXQw=="}, "dilations": {"list": {"i": ["1", "1", "1", "1"]}}, "T": {"type": "DT_FLOAT"}}}, {"name": "faster/res4_0/deepwise1/conv3/batch_normalization/FusedBatchNormV3", "op": "BiasAdd", "input": ["faster/res4_0/deepwise1/conv3/Conv2D", "faster/res4_0/deepwise1/conv3/Conv2D_bn_offset"], "attr": {"T": {"type": "DT_FLOAT"}, "data_format": {"s": "TkhXQw=="}}}, {"name": "faster/res4_0/add", "op": "AddV2", "input": ["faster/res4_0/deepwise1/conv3/batch_normalization/FusedBatchNormV3", "faster/d4/conv3/batch_normalization/FusedBatchNormV3"], "attr": {"T": {"type": "DT_FLOAT"}}}, {"name": "faster/res4_1/deepwise1/conv1/Conv2D", "op": "Conv2D", "input": ["faster/res4_0/add", "faster/res4_1/deepwise1/conv1/Conv2D_weights"], "device": "/device:CPU:0", "attr": {"T": {"type": "DT_FLOAT"}, "data_format": {"s": "TkhXQw=="}, "strides": {"list": {"i": ["1", "1", "1", "1"]}}, "use_cudnn_on_gpu": {"b": true}, "dilations": {"list": {"i": ["1", "1", "1", "1"]}}, "padding": {"s": "U0FNRQ=="}, "explicit_paddings": {"list": {}}}}, {"name": "faster/res4_1/deepwise1/conv1/batch_normalization/FusedBatchNormV3", "op": "BiasAdd", "input": ["faster/res4_1/deepwise1/conv1/Conv2D", "faster/res4_1/deepwise1/conv1/Conv2D_bn_offset"], "attr": {"T": {"type": "DT_FLOAT"}, "data_format": {"s": "TkhXQw=="}}}, {"name": "faster/res4_1/deepwise1/conv1/Relu", "op": "Relu", "input": ["faster/res4_1/deepwise1/conv1/batch_normalization/FusedBatchNormV3"], "attr": {"T": {"type": "DT_FLOAT"}}}, {"name": "faster/res4_1/deepwise1/conv2_1", "op": "FusedDepthwiseConv2dNative", "input": ["faster/res4_1/deepwise1/conv1/Relu", "faster/res4_1/deepwise1/conv2_1_weights", "faster/res4_1/deepwise1/conv2_1_bn_offset"], "attr": {"num_args": {"i": "1"}, "fused_ops": {"list": {"s": ["Qmlhc0FkZA==", "UmVsdQ=="]}}, "explicit_paddings": {"list": {}}, "T": {"type": "DT_FLOAT"}, "data_format": {"s": "TkhXQw=="}, "strides": {"list": {"i": ["1", "1", "1", "1"]}}, "padding": {"s": "U0FNRQ=="}, "dilations": {"list": {"i": ["1", "1", "1", "1"]}}}}, {"name": "faster/res4_1/deepwise1/conv3/Conv2D", "op": "Conv2D", "input": ["faster/res4_1/deepwise1/conv2_1", "faster/res4_1/deepwise1/conv3/Conv2D_weights"], "device": "/device:CPU:0", "attr": {"dilations": {"list": {"i": ["1", "1", "1", "1"]}}, "explicit_paddings": {"list": {}}, "use_cudnn_on_gpu": {"b": true}, "data_format": {"s": "TkhXQw=="}, "T": {"type": "DT_FLOAT"}, "strides": {"list": {"i": ["1", "1", "1", "1"]}}, "padding": {"s": "U0FNRQ=="}}}, {"name": "faster/res4_1/deepwise1/conv3/batch_normalization/FusedBatchNormV3", "op": "BiasAdd", "input": ["faster/res4_1/deepwise1/conv3/Conv2D", "faster/res4_1/deepwise1/conv3/Conv2D_bn_offset"], "attr": {"data_format": {"s": "TkhXQw=="}, "T": {"type": "DT_FLOAT"}}}, {"name": "faster/res4_1/add", "op": "AddV2", "input": ["faster/res4_1/deepwise1/conv3/batch_normalization/FusedBatchNormV3", "faster/res4_0/add"], "attr": {"T": {"type": "DT_FLOAT"}}}, {"name": "faster/res4_2/deepwise1/conv1/Conv2D", "op": "Conv2D", "input": ["faster/res4_1/add", "faster/res4_2/deepwise1/conv1/Conv2D_weights"], "device": "/device:CPU:0", "attr": {"dilations": {"list": {"i": ["1", "1", "1", "1"]}}, "padding": {"s": "U0FNRQ=="}, "use_cudnn_on_gpu": {"b": true}, "T": {"type": "DT_FLOAT"}, "data_format": {"s": "TkhXQw=="}, "strides": {"list": {"i": ["1", "1", "1", "1"]}}, "explicit_paddings": {"list": {}}}}, {"name": "faster/res4_2/deepwise1/conv1/batch_normalization/FusedBatchNormV3", "op": "BiasAdd", "input": ["faster/res4_2/deepwise1/conv1/Conv2D", "faster/res4_2/deepwise1/conv1/Conv2D_bn_offset"], "attr": {"T": {"type": "DT_FLOAT"}, "data_format": {"s": "TkhXQw=="}}}, {"name": "faster/res4_2/deepwise1/conv1/Relu", "op": "Relu", "input": ["faster/res4_2/deepwise1/conv1/batch_normalization/FusedBatchNormV3"], "attr": {"T": {"type": "DT_FLOAT"}}}, {"name": "faster/res4_2/deepwise1/conv2_1", "op": "FusedDepthwiseConv2dNative", "input": ["faster/res4_2/deepwise1/conv1/Relu", "faster/res4_2/deepwise1/conv2_1_weights", "faster/res4_2/deepwise1/conv2_1_bn_offset"], "attr": {"padding": {"s": "U0FNRQ=="}, "explicit_paddings": {"list": {}}, "T": {"type": "DT_FLOAT"}, "num_args": {"i": "1"}, "fused_ops": {"list": {"s": ["Qmlhc0FkZA==", "UmVsdQ=="]}}, "strides": {"list": {"i": ["1", "1", "1", "1"]}}, "data_format": {"s": "TkhXQw=="}, "dilations": {"list": {"i": ["1", "1", "1", "1"]}}}}, {"name": "faster/res4_2/deepwise1/conv3/Conv2D", "op": "Conv2D", "input": ["faster/res4_2/deepwise1/conv2_1", "faster/res4_2/deepwise1/conv3/Conv2D_weights"], "device": "/device:CPU:0", "attr": {"data_format": {"s": "TkhXQw=="}, "use_cudnn_on_gpu": {"b": true}, "T": {"type": "DT_FLOAT"}, "padding": {"s": "U0FNRQ=="}, "strides": {"list": {"i": ["1", "1", "1", "1"]}}, "explicit_paddings": {"list": {}}, "dilations": {"list": {"i": ["1", "1", "1", "1"]}}}}, {"name": "faster/res4_2/deepwise1/conv3/batch_normalization/FusedBatchNormV3", "op": "BiasAdd", "input": ["faster/res4_2/deepwise1/conv3/Conv2D", "faster/res4_2/deepwise1/conv3/Conv2D_bn_offset"], "attr": {"T": {"type": "DT_FLOAT"}, "data_format": {"s": "TkhXQw=="}}}, {"name": "faster/res4_2/add", "op": "AddV2", "input": ["faster/res4_2/deepwise1/conv3/batch_normalization/FusedBatchNormV3", "faster/res4_1/add"], "attr": {"T": {"type": "DT_FLOAT"}}}, {"name": "faster/res4_3/deepwise1/conv1/Conv2D", "op": "Conv2D", "input": ["faster/res4_2/add", "faster/res4_3/deepwise1/conv1/Conv2D_weights"], "device": "/device:CPU:0", "attr": {"strides": {"list": {"i": ["1", "1", "1", "1"]}}, "dilations": {"list": {"i": ["1", "1", "1", "1"]}}, "data_format": {"s": "TkhXQw=="}, "padding": {"s": "U0FNRQ=="}, "use_cudnn_on_gpu": {"b": true}, "explicit_paddings": {"list": {}}, "T": {"type": "DT_FLOAT"}}}, {"name": "faster/res4_3/deepwise1/conv1/batch_normalization/FusedBatchNormV3", "op": "BiasAdd", "input": ["faster/res4_3/deepwise1/conv1/Conv2D", "faster/res4_3/deepwise1/conv1/Conv2D_bn_offset"], "attr": {"data_format": {"s": "TkhXQw=="}, "T": {"type": "DT_FLOAT"}}}, {"name": "faster/res4_3/deepwise1/conv1/Relu", "op": "Relu", "input": ["faster/res4_3/deepwise1/conv1/batch_normalization/FusedBatchNormV3"], "attr": {"T": {"type": "DT_FLOAT"}}}, {"name": "faster/res4_3/deepwise1/conv2_1", "op": "FusedDepthwiseConv2dNative", "input": ["faster/res4_3/deepwise1/conv1/Relu", "faster/res4_3/deepwise1/conv2_1_weights", "faster/res4_3/deepwise1/conv2_1_bn_offset"], "attr": {"T": {"type": "DT_FLOAT"}, "dilations": {"list": {"i": ["1", "1", "1", "1"]}}, "data_format": {"s": "TkhXQw=="}, "explicit_paddings": {"list": {}}, "padding": {"s": "U0FNRQ=="}, "strides": {"list": {"i": ["1", "1", "1", "1"]}}, "fused_ops": {"list": {"s": ["Qmlhc0FkZA==", "UmVsdQ=="]}}, "num_args": {"i": "1"}}}, {"name": "faster/res4_3/deepwise1/conv3/Conv2D", "op": "Conv2D", "input": ["faster/res4_3/deepwise1/conv2_1", "faster/res4_3/deepwise1/conv3/Conv2D_weights"], "device": "/device:CPU:0", "attr": {"use_cudnn_on_gpu": {"b": true}, "dilations": {"list": {"i": ["1", "1", "1", "1"]}}, "T": {"type": "DT_FLOAT"}, "data_format": {"s": "TkhXQw=="}, "strides": {"list": {"i": ["1", "1", "1", "1"]}}, "padding": {"s": "U0FNRQ=="}, "explicit_paddings": {"list": {}}}}, {"name": "faster/res4_3/deepwise1/conv3/batch_normalization/FusedBatchNormV3", "op": "BiasAdd", "input": ["faster/res4_3/deepwise1/conv3/Conv2D", "faster/res4_3/deepwise1/conv3/Conv2D_bn_offset"], "attr": {"data_format": {"s": "TkhXQw=="}, "T": {"type": "DT_FLOAT"}}}, {"name": "faster/res4_3/add", "op": "AddV2", "input": ["faster/res4_3/deepwise1/conv3/batch_normalization/FusedBatchNormV3", "faster/res4_2/add"], "attr": {"T": {"type": "DT_FLOAT"}}}, {"name": "faster/d5/conv1/Conv2D", "op": "Conv2D", "input": ["faster/res4_3/add", "faster/d5/conv1/Conv2D_weights"], "device": "/device:CPU:0", "attr": {"data_format": {"s": "TkhXQw=="}, "dilations": {"list": {"i": ["1", "1", "1", "1"]}}, "T": {"type": "DT_FLOAT"}, "use_cudnn_on_gpu": {"b": true}, "explicit_paddings": {"list": {}}, "strides": {"list": {"i": ["1", "1", "1", "1"]}}, "padding": {"s": "U0FNRQ=="}}}, {"name": "faster/d5/conv1/batch_normalization/FusedBatchNormV3", "op": "BiasAdd", "input": ["faster/d5/conv1/Conv2D", "faster/d5/conv1/Conv2D_bn_offset"], "attr": {"data_format": {"s": "TkhXQw=="}, "T": {"type": "DT_FLOAT"}}}, {"name": "faster/d5/conv1/Relu", "op": "Relu", "input": ["faster/d5/conv1/batch_normalization/FusedBatchNormV3"], "attr": {"T": {"type": "DT_FLOAT"}}}, {"name": "faster/d5/Pad", "op": "Pad", "input": ["faster/d5/conv1/Relu", "faster/d5/Const"], "attr": {"Tpaddings": {"type": "DT_INT32"}, "T": {"type": "DT_FLOAT"}}}, {"name": "faster/d5/conv2_1", "op": "FusedDepthwiseConv2dNative", "input": ["faster/d5/Pad", "faster/d5/conv2_1_weights", "faster/d5/conv2_1_bn_offset"], "attr": {"fused_ops": {"list": {"s": ["Qmlhc0FkZA==", "UmVsdQ=="]}}, "padding": {"s": "VkFMSUQ="}, "dilations": {"list": {"i": ["1", "1", "1", "1"]}}, "explicit_paddings": {"list": {}}, "strides": {"list": {"i": ["1", "2", "2", "1"]}}, "T": {"type": "DT_FLOAT"}, "data_format": {"s": "TkhXQw=="}, "num_args": {"i": "1"}}}, {"name": "faster/d5/conv3/Conv2D", "op": "Conv2D", "input": ["faster/d5/conv2_1", "faster/d5/conv3/Conv2D_weights"], "device": "/device:CPU:0", "attr": {"explicit_paddings": {"list": {}}, "strides": {"list": {"i": ["1", "1", "1", "1"]}}, "T": {"type": "DT_FLOAT"}, "dilations": {"list": {"i": ["1", "1", "1", "1"]}}, "padding": {"s": "U0FNRQ=="}, "use_cudnn_on_gpu": {"b": true}, "data_format": {"s": "TkhXQw=="}}}, {"name": "faster/d5/conv3/batch_normalization/FusedBatchNormV3", "op": "BiasAdd", "input": ["faster/d5/conv3/Conv2D", "faster/d5/conv3/Conv2D_bn_offset"], "attr": {"T": {"type": "DT_FLOAT"}, "data_format": {"s": "TkhXQw=="}}}, {"name": "faster/res5_0/deepwise1/conv1/Conv2D", "op": "Conv2D", "input": ["faster/d5/conv3/batch_normalization/FusedBatchNormV3", "faster/res5_0/deepwise1/conv1/Conv2D_weights"], "device": "/device:CPU:0", "attr": {"explicit_paddings": {"list": {}}, "strides": {"list": {"i": ["1", "1", "1", "1"]}}, "dilations": {"list": {"i": ["1", "1", "1", "1"]}}, "data_format": {"s": "TkhXQw=="}, "padding": {"s": "U0FNRQ=="}, "T": {"type": "DT_FLOAT"}, "use_cudnn_on_gpu": {"b": true}}}, {"name": "faster/res5_0/deepwise1/conv1/batch_normalization/FusedBatchNormV3", "op": "BiasAdd", "input": ["faster/res5_0/deepwise1/conv1/Conv2D", "faster/res5_0/deepwise1/conv1/Conv2D_bn_offset"], "attr": {"T": {"type": "DT_FLOAT"}, "data_format": {"s": "TkhXQw=="}}}, {"name": "faster/res5_0/deepwise1/conv1/Relu", "op": "Relu", "input": ["faster/res5_0/deepwise1/conv1/batch_normalization/FusedBatchNormV3"], "attr": {"T": {"type": "DT_FLOAT"}}}, {"name": "faster/res5_0/deepwise1/conv2_1", "op": "FusedDepthwiseConv2dNative", "input": ["faster/res5_0/deepwise1/conv1/Relu", "faster/res5_0/deepwise1/conv2_1_weights", "faster/res5_0/deepwise1/conv2_1_bn_offset"], "attr": {"strides": {"list": {"i": ["1", "1", "1", "1"]}}, "num_args": {"i": "1"}, "dilations": {"list": {"i": ["1", "1", "1", "1"]}}, "explicit_paddings": {"list": {}}, "padding": {"s": "U0FNRQ=="}, "fused_ops": {"list": {"s": ["Qmlhc0FkZA==", "UmVsdQ=="]}}, "T": {"type": "DT_FLOAT"}, "data_format": {"s": "TkhXQw=="}}}, {"name": "faster/res5_0/deepwise1/conv3/Conv2D", "op": "Conv2D", "input": ["faster/res5_0/deepwise1/conv2_1", "faster/res5_0/deepwise1/conv3/Conv2D_weights"], "device": "/device:CPU:0", "attr": {"use_cudnn_on_gpu": {"b": true}, "strides": {"list": {"i": ["1", "1", "1", "1"]}}, "dilations": {"list": {"i": ["1", "1", "1", "1"]}}, "padding": {"s": "U0FNRQ=="}, "data_format": {"s": "TkhXQw=="}, "T": {"type": "DT_FLOAT"}, "explicit_paddings": {"list": {}}}}, {"name": "faster/res5_0/deepwise1/conv3/batch_normalization/FusedBatchNormV3", "op": "BiasAdd", "input": ["faster/res5_0/deepwise1/conv3/Conv2D", "faster/res5_0/deepwise1/conv3/Conv2D_bn_offset"], "attr": {"data_format": {"s": "TkhXQw=="}, "T": {"type": "DT_FLOAT"}}}, {"name": "faster/res5_0/add", "op": "AddV2", "input": ["faster/res5_0/deepwise1/conv3/batch_normalization/FusedBatchNormV3", "faster/d5/conv3/batch_normalization/FusedBatchNormV3"], "attr": {"T": {"type": "DT_FLOAT"}}}, {"name": "faster/res5_1/deepwise1/conv1/Conv2D", "op": "Conv2D", "input": ["faster/res5_0/add", "faster/res5_1/deepwise1/conv1/Conv2D_weights"], "device": "/device:CPU:0", "attr": {"padding": {"s": "U0FNRQ=="}, "data_format": {"s": "TkhXQw=="}, "T": {"type": "DT_FLOAT"}, "explicit_paddings": {"list": {}}, "dilations": {"list": {"i": ["1", "1", "1", "1"]}}, "strides": {"list": {"i": ["1", "1", "1", "1"]}}, "use_cudnn_on_gpu": {"b": true}}}, {"name": "faster/res5_1/deepwise1/conv1/batch_normalization/FusedBatchNormV3", "op": "BiasAdd", "input": ["faster/res5_1/deepwise1/conv1/Conv2D", "faster/res5_1/deepwise1/conv1/Conv2D_bn_offset"], "attr": {"data_format": {"s": "TkhXQw=="}, "T": {"type": "DT_FLOAT"}}}, {"name": "faster/res5_1/deepwise1/conv1/Relu", "op": "Relu", "input": ["faster/res5_1/deepwise1/conv1/batch_normalization/FusedBatchNormV3"], "attr": {"T": {"type": "DT_FLOAT"}}}, {"name": "faster/res5_1/deepwise1/conv2_1", "op": "FusedDepthwiseConv2dNative", "input": ["faster/res5_1/deepwise1/conv1/Relu", "faster/res5_1/deepwise1/conv2_1_weights", "faster/res5_1/deepwise1/conv2_1_bn_offset"], "attr": {"explicit_paddings": {"list": {}}, "num_args": {"i": "1"}, "T": {"type": "DT_FLOAT"}, "strides": {"list": {"i": ["1", "1", "1", "1"]}}, "fused_ops": {"list": {"s": ["Qmlhc0FkZA==", "UmVsdQ=="]}}, "dilations": {"list": {"i": ["1", "1", "1", "1"]}}, "data_format": {"s": "TkhXQw=="}, "padding": {"s": "U0FNRQ=="}}}, {"name": "faster/res5_1/deepwise1/conv3/Conv2D", "op": "Conv2D", "input": ["faster/res5_1/deepwise1/conv2_1", "faster/res5_1/deepwise1/conv3/Conv2D_weights"], "device": "/device:CPU:0", "attr": {"data_format": {"s": "TkhXQw=="}, "use_cudnn_on_gpu": {"b": true}, "T": {"type": "DT_FLOAT"}, "explicit_paddings": {"list": {}}, "dilations": {"list": {"i": ["1", "1", "1", "1"]}}, "padding": {"s": "U0FNRQ=="}, "strides": {"list": {"i": ["1", "1", "1", "1"]}}}}, {"name": "faster/res5_1/deepwise1/conv3/batch_normalization/FusedBatchNormV3", "op": "BiasAdd", "input": ["faster/res5_1/deepwise1/conv3/Conv2D", "faster/res5_1/deepwise1/conv3/Conv2D_bn_offset"], "attr": {"T": {"type": "DT_FLOAT"}, "data_format": {"s": "TkhXQw=="}}}, {"name": "faster/res5_1/add", "op": "AddV2", "input": ["faster/res5_1/deepwise1/conv3/batch_normalization/FusedBatchNormV3", "faster/res5_0/add"], "attr": {"T": {"type": "DT_FLOAT"}}}, {"name": "faster/res5_2/deepwise1/conv1/Conv2D", "op": "Conv2D", "input": ["faster/res5_1/add", "faster/res5_2/deepwise1/conv1/Conv2D_weights"], "device": "/device:CPU:0", "attr": {"explicit_paddings": {"list": {}}, "data_format": {"s": "TkhXQw=="}, "dilations": {"list": {"i": ["1", "1", "1", "1"]}}, "padding": {"s": "U0FNRQ=="}, "use_cudnn_on_gpu": {"b": true}, "strides": {"list": {"i": ["1", "1", "1", "1"]}}, "T": {"type": "DT_FLOAT"}}}, {"name": "faster/res5_2/deepwise1/conv1/batch_normalization/FusedBatchNormV3", "op": "BiasAdd", "input": ["faster/res5_2/deepwise1/conv1/Conv2D", "faster/res5_2/deepwise1/conv1/Conv2D_bn_offset"], "attr": {"data_format": {"s": "TkhXQw=="}, "T": {"type": "DT_FLOAT"}}}, {"name": "faster/res5_2/deepwise1/conv1/Relu", "op": "Relu", "input": ["faster/res5_2/deepwise1/conv1/batch_normalization/FusedBatchNormV3"], "attr": {"T": {"type": "DT_FLOAT"}}}, {"name": "faster/res5_2/deepwise1/conv2_1", "op": "FusedDepthwiseConv2dNative", "input": ["faster/res5_2/deepwise1/conv1/Relu", "faster/res5_2/deepwise1/conv2_1_weights", "faster/res5_2/deepwise1/conv2_1_bn_offset"], "attr": {"dilations": {"list": {"i": ["1", "1", "1", "1"]}}, "padding": {"s": "U0FNRQ=="}, "num_args": {"i": "1"}, "explicit_paddings": {"list": {}}, "fused_ops": {"list": {"s": ["Qmlhc0FkZA==", "UmVsdQ=="]}}, "data_format": {"s": "TkhXQw=="}, "T": {"type": "DT_FLOAT"}, "strides": {"list": {"i": ["1", "1", "1", "1"]}}}}, {"name": "faster/res5_2/deepwise1/conv3/Conv2D", "op": "Conv2D", "input": ["faster/res5_2/deepwise1/conv2_1", "faster/res5_2/deepwise1/conv3/Conv2D_weights"], "device": "/device:CPU:0", "attr": {"T": {"type": "DT_FLOAT"}, "explicit_paddings": {"list": {}}, "dilations": {"list": {"i": ["1", "1", "1", "1"]}}, "data_format": {"s": "TkhXQw=="}, "padding": {"s": "U0FNRQ=="}, "use_cudnn_on_gpu": {"b": true}, "strides": {"list": {"i": ["1", "1", "1", "1"]}}}}, {"name": "faster/res5_2/deepwise1/conv3/batch_normalization/FusedBatchNormV3", "op": "BiasAdd", "input": ["faster/res5_2/deepwise1/conv3/Conv2D", "faster/res5_2/deepwise1/conv3/Conv2D_bn_offset"], "attr": {"T": {"type": "DT_FLOAT"}, "data_format": {"s": "TkhXQw=="}}}, {"name": "faster/res5_2/add", "op": "AddV2", "input": ["faster/res5_2/deepwise1/conv3/batch_normalization/FusedBatchNormV3", "faster/res5_1/add"], "attr": {"T": {"type": "DT_FLOAT"}}}, {"name": "faster/res5_3/deepwise1/conv1/Conv2D", "op": "Conv2D", "input": ["faster/res5_2/add", "faster/res5_3/deepwise1/conv1/Conv2D_weights"], "device": "/device:CPU:0", "attr": {"T": {"type": "DT_FLOAT"}, "strides": {"list": {"i": ["1", "1", "1", "1"]}}, "data_format": {"s": "TkhXQw=="}, "dilations": {"list": {"i": ["1", "1", "1", "1"]}}, "explicit_paddings": {"list": {}}, "padding": {"s": "U0FNRQ=="}, "use_cudnn_on_gpu": {"b": true}}}, {"name": "faster/res5_3/deepwise1/conv1/batch_normalization/FusedBatchNormV3", "op": "BiasAdd", "input": ["faster/res5_3/deepwise1/conv1/Conv2D", "faster/res5_3/deepwise1/conv1/Conv2D_bn_offset"], "attr": {"data_format": {"s": "TkhXQw=="}, "T": {"type": "DT_FLOAT"}}}, {"name": "faster/res5_3/deepwise1/conv1/Relu", "op": "Relu", "input": ["faster/res5_3/deepwise1/conv1/batch_normalization/FusedBatchNormV3"], "attr": {"T": {"type": "DT_FLOAT"}}}, {"name": "faster/res5_3/deepwise1/conv2_1", "op": "FusedDepthwiseConv2dNative", "input": ["faster/res5_3/deepwise1/conv1/Relu", "faster/res5_3/deepwise1/conv2_1_weights", "faster/res5_3/deepwise1/conv2_1_bn_offset"], "attr": {"num_args": {"i": "1"}, "dilations": {"list": {"i": ["1", "1", "1", "1"]}}, "data_format": {"s": "TkhXQw=="}, "strides": {"list": {"i": ["1", "1", "1", "1"]}}, "T": {"type": "DT_FLOAT"}, "fused_ops": {"list": {"s": ["Qmlhc0FkZA==", "UmVsdQ=="]}}, "padding": {"s": "U0FNRQ=="}, "explicit_paddings": {"list": {}}}}, {"name": "faster/res5_3/deepwise1/conv3/Conv2D", "op": "Conv2D", "input": ["faster/res5_3/deepwise1/conv2_1", "faster/res5_3/deepwise1/conv3/Conv2D_weights"], "device": "/device:CPU:0", "attr": {"strides": {"list": {"i": ["1", "1", "1", "1"]}}, "use_cudnn_on_gpu": {"b": true}, "explicit_paddings": {"list": {}}, "T": {"type": "DT_FLOAT"}, "dilations": {"list": {"i": ["1", "1", "1", "1"]}}, "data_format": {"s": "TkhXQw=="}, "padding": {"s": "U0FNRQ=="}}}, {"name": "faster/res5_3/deepwise1/conv3/batch_normalization/FusedBatchNormV3", "op": "BiasAdd", "input": ["faster/res5_3/deepwise1/conv3/Conv2D", "faster/res5_3/deepwise1/conv3/Conv2D_bn_offset"], "attr": {"T": {"type": "DT_FLOAT"}, "data_format": {"s": "TkhXQw=="}}}, {"name": "faster/res5_3/add", "op": "AddV2", "input": ["faster/res5_3/deepwise1/conv3/batch_normalization/FusedBatchNormV3", "faster/res5_2/add"], "attr": {"T": {"type": "DT_FLOAT"}}}, {"name": "faster/conv2/Conv2D", "op": "Conv2D", "input": ["faster/res5_3/add", "faster/conv2/Conv2D_weights"], "device": "/device:CPU:0", "attr": {"use_cudnn_on_gpu": {"b": true}, "padding": {"s": "U0FNRQ=="}, "dilations": {"list": {"i": ["1", "1", "1", "1"]}}, "explicit_paddings": {"list": {}}, "T": {"type": "DT_FLOAT"}, "strides": {"list": {"i": ["1", "1", "1", "1"]}}, "data_format": {"s": "TkhXQw=="}}}, {"name": "faster/conv2/batch_normalization/FusedBatchNormV3", "op": "BiasAdd", "input": ["faster/conv2/Conv2D", "faster/conv2/Conv2D_bn_offset"], "attr": {"data_format": {"s": "TkhXQw=="}, "T": {"type": "DT_FLOAT"}}}, {"name": "faster/conv2/Relu", "op": "Relu", "input": ["faster/conv2/batch_normalization/FusedBatchNormV3"], "attr": {"T": {"type": "DT_FLOAT"}}}, {"name": "faster/d6/Pad", "op": "Pad", "input": ["faster/conv2/Relu", "faster/d6/Const"], "attr": {"T": {"type": "DT_FLOAT"}, "Tpaddings": {"type": "DT_INT32"}}}, {"name": "faster/d6/conv2_1", "op": "FusedDepthwiseConv2dNative", "input": ["faster/d6/Pad", "faster/d6/conv2_1_weights", "faster/d6/conv2_1_bn_offset"], "attr": {"explicit_paddings": {"list": {}}, "fused_ops": {"list": {"s": ["Qmlhc0FkZA==", "UmVsdQ=="]}}, "dilations": {"list": {"i": ["1", "1", "1", "1"]}}, "num_args": {"i": "1"}, "strides": {"list": {"i": ["1", "2", "2", "1"]}}, "T": {"type": "DT_FLOAT"}, "data_format": {"s": "TkhXQw=="}, "padding": {"s": "VkFMSUQ="}}}, {"name": "faster/d6/conv3/Conv2D", "op": "Conv2D", "input": ["faster/d6/conv2_1", "faster/d6/conv3/Conv2D_weights"], "device": "/device:CPU:0", "attr": {"T": {"type": "DT_FLOAT"}, "use_cudnn_on_gpu": {"b": true}, "padding": {"s": "U0FNRQ=="}, "strides": {"list": {"i": ["1", "1", "1", "1"]}}, "data_format": {"s": "TkhXQw=="}, "dilations": {"list": {"i": ["1", "1", "1", "1"]}}, "explicit_paddings": {"list": {}}}}, {"name": "faster/d6/conv3/batch_normalization/FusedBatchNormV3", "op": "BiasAdd", "input": ["faster/d6/conv3/Conv2D", "faster/d6/conv3/Conv2D_bn_offset"], "attr": {"T": {"type": "DT_FLOAT"}, "data_format": {"s": "TkhXQw=="}}}, {"name": "faster/res6_0/deepwise1/conv1/Conv2D", "op": "Conv2D", "input": ["faster/d6/conv3/batch_normalization/FusedBatchNormV3", "faster/res6_0/deepwise1/conv1/Conv2D_weights"], "device": "/device:CPU:0", "attr": {"strides": {"list": {"i": ["1", "1", "1", "1"]}}, "use_cudnn_on_gpu": {"b": true}, "explicit_paddings": {"list": {}}, "T": {"type": "DT_FLOAT"}, "dilations": {"list": {"i": ["1", "1", "1", "1"]}}, "data_format": {"s": "TkhXQw=="}, "padding": {"s": "U0FNRQ=="}}}, {"name": "faster/res6_0/deepwise1/conv1/batch_normalization/FusedBatchNormV3", "op": "BiasAdd", "input": ["faster/res6_0/deepwise1/conv1/Conv2D", "faster/res6_0/deepwise1/conv1/Conv2D_bn_offset"], "attr": {"data_format": {"s": "TkhXQw=="}, "T": {"type": "DT_FLOAT"}}}, {"name": "faster/res6_0/deepwise1/conv1/Relu", "op": "Relu", "input": ["faster/res6_0/deepwise1/conv1/batch_normalization/FusedBatchNormV3"], "attr": {"T": {"type": "DT_FLOAT"}}}, {"name": "faster/res6_0/deepwise1/conv2_1", "op": "FusedDepthwiseConv2dNative", "input": ["faster/res6_0/deepwise1/conv1/Relu", "faster/res6_0/deepwise1/conv2_1_weights", "faster/res6_0/deepwise1/conv2_1_bn_offset"], "attr": {"strides": {"list": {"i": ["1", "1", "1", "1"]}}, "explicit_paddings": {"list": {}}, "num_args": {"i": "1"}, "T": {"type": "DT_FLOAT"}, "fused_ops": {"list": {"s": ["Qmlhc0FkZA==", "UmVsdQ=="]}}, "dilations": {"list": {"i": ["1", "1", "1", "1"]}}, "data_format": {"s": "TkhXQw=="}, "padding": {"s": "U0FNRQ=="}}}, {"name": "faster/res6_0/deepwise1/conv3/Conv2D", "op": "Conv2D", "input": ["faster/res6_0/deepwise1/conv2_1", "faster/res6_0/deepwise1/conv3/Conv2D_weights"], "device": "/device:CPU:0", "attr": {"use_cudnn_on_gpu": {"b": true}, "padding": {"s": "U0FNRQ=="}, "T": {"type": "DT_FLOAT"}, "dilations": {"list": {"i": ["1", "1", "1", "1"]}}, "data_format": {"s": "TkhXQw=="}, "strides": {"list": {"i": ["1", "1", "1", "1"]}}, "explicit_paddings": {"list": {}}}}, {"name": "faster/res6_0/deepwise1/conv3/batch_normalization/FusedBatchNormV3", "op": "BiasAdd", "input": ["faster/res6_0/deepwise1/conv3/Conv2D", "faster/res6_0/deepwise1/conv3/Conv2D_bn_offset"], "attr": {"data_format": {"s": "TkhXQw=="}, "T": {"type": "DT_FLOAT"}}}, {"name": "faster/res6_0/add", "op": "AddV2", "input": ["faster/res6_0/deepwise1/conv3/batch_normalization/FusedBatchNormV3", "faster/d6/conv3/batch_normalization/FusedBatchNormV3"], "attr": {"T": {"type": "DT_FLOAT"}}}, {"name": "faster/res6_1/deepwise1/conv1/Conv2D", "op": "Conv2D", "input": ["faster/res6_0/add", "faster/res6_1/deepwise1/conv1/Conv2D_weights"], "device": "/device:CPU:0", "attr": {"padding": {"s": "U0FNRQ=="}, "T": {"type": "DT_FLOAT"}, "explicit_paddings": {"list": {}}, "data_format": {"s": "TkhXQw=="}, "use_cudnn_on_gpu": {"b": true}, "dilations": {"list": {"i": ["1", "1", "1", "1"]}}, "strides": {"list": {"i": ["1", "1", "1", "1"]}}}}, {"name": "faster/res6_1/deepwise1/conv1/batch_normalization/FusedBatchNormV3", "op": "BiasAdd", "input": ["faster/res6_1/deepwise1/conv1/Conv2D", "faster/res6_1/deepwise1/conv1/Conv2D_bn_offset"], "attr": {"data_format": {"s": "TkhXQw=="}, "T": {"type": "DT_FLOAT"}}}, {"name": "faster/res6_1/deepwise1/conv1/Relu", "op": "Relu", "input": ["faster/res6_1/deepwise1/conv1/batch_normalization/FusedBatchNormV3"], "attr": {"T": {"type": "DT_FLOAT"}}}, {"name": "faster/res6_1/deepwise1/conv2_1", "op": "FusedDepthwiseConv2dNative", "input": ["faster/res6_1/deepwise1/conv1/Relu", "faster/res6_1/deepwise1/conv2_1_weights", "faster/res6_1/deepwise1/conv2_1_bn_offset"], "attr": {"dilations": {"list": {"i": ["1", "1", "1", "1"]}}, "num_args": {"i": "1"}, "padding": {"s": "U0FNRQ=="}, "data_format": {"s": "TkhXQw=="}, "strides": {"list": {"i": ["1", "1", "1", "1"]}}, "T": {"type": "DT_FLOAT"}, "fused_ops": {"list": {"s": ["Qmlhc0FkZA==", "UmVsdQ=="]}}, "explicit_paddings": {"list": {}}}}, {"name": "faster/res6_1/deepwise1/conv3/Conv2D", "op": "Conv2D", "input": ["faster/res6_1/deepwise1/conv2_1", "faster/res6_1/deepwise1/conv3/Conv2D_weights"], "device": "/device:CPU:0", "attr": {"T": {"type": "DT_FLOAT"}, "strides": {"list": {"i": ["1", "1", "1", "1"]}}, "dilations": {"list": {"i": ["1", "1", "1", "1"]}}, "explicit_paddings": {"list": {}}, "use_cudnn_on_gpu": {"b": true}, "padding": {"s": "U0FNRQ=="}, "data_format": {"s": "TkhXQw=="}}}, {"name": "faster/res6_1/deepwise1/conv3/batch_normalization/FusedBatchNormV3", "op": "BiasAdd", "input": ["faster/res6_1/deepwise1/conv3/Conv2D", "faster/res6_1/deepwise1/conv3/Conv2D_bn_offset"], "attr": {"T": {"type": "DT_FLOAT"}, "data_format": {"s": "TkhXQw=="}}}, {"name": "faster/res6_1/add", "op": "AddV2", "input": ["faster/res6_1/deepwise1/conv3/batch_normalization/FusedBatchNormV3", "faster/res6_0/add"], "attr": {"T": {"type": "DT_FLOAT"}}}, {"name": "faster/res6_2/deepwise1/conv1/Conv2D", "op": "Conv2D", "input": ["faster/res6_1/add", "faster/res6_2/deepwise1/conv1/Conv2D_weights"], "device": "/device:CPU:0", "attr": {"data_format": {"s": "TkhXQw=="}, "padding": {"s": "U0FNRQ=="}, "dilations": {"list": {"i": ["1", "1", "1", "1"]}}, "strides": {"list": {"i": ["1", "1", "1", "1"]}}, "explicit_paddings": {"list": {}}, "T": {"type": "DT_FLOAT"}, "use_cudnn_on_gpu": {"b": true}}}, {"name": "faster/res6_2/deepwise1/conv1/batch_normalization/FusedBatchNormV3", "op": "BiasAdd", "input": ["faster/res6_2/deepwise1/conv1/Conv2D", "faster/res6_2/deepwise1/conv1/Conv2D_bn_offset"], "attr": {"data_format": {"s": "TkhXQw=="}, "T": {"type": "DT_FLOAT"}}}, {"name": "faster/res6_2/deepwise1/conv1/Relu", "op": "Relu", "input": ["faster/res6_2/deepwise1/conv1/batch_normalization/FusedBatchNormV3"], "attr": {"T": {"type": "DT_FLOAT"}}}, {"name": "faster/res6_2/deepwise1/conv2_1", "op": "FusedDepthwiseConv2dNative", "input": ["faster/res6_2/deepwise1/conv1/Relu", "faster/res6_2/deepwise1/conv2_1_weights", "faster/res6_2/deepwise1/conv2_1_bn_offset"], "attr": {"dilations": {"list": {"i": ["1", "1", "1", "1"]}}, "fused_ops": {"list": {"s": ["Qmlhc0FkZA==", "UmVsdQ=="]}}, "explicit_paddings": {"list": {}}, "strides": {"list": {"i": ["1", "1", "1", "1"]}}, "T": {"type": "DT_FLOAT"}, "num_args": {"i": "1"}, "padding": {"s": "U0FNRQ=="}, "data_format": {"s": "TkhXQw=="}}}, {"name": "faster/res6_2/deepwise1/conv3/Conv2D", "op": "Conv2D", "input": ["faster/res6_2/deepwise1/conv2_1", "faster/res6_2/deepwise1/conv3/Conv2D_weights"], "device": "/device:CPU:0", "attr": {"explicit_paddings": {"list": {}}, "T": {"type": "DT_FLOAT"}, "strides": {"list": {"i": ["1", "1", "1", "1"]}}, "use_cudnn_on_gpu": {"b": true}, "dilations": {"list": {"i": ["1", "1", "1", "1"]}}, "padding": {"s": "U0FNRQ=="}, "data_format": {"s": "TkhXQw=="}}}, {"name": "faster/res6_2/deepwise1/conv3/batch_normalization/FusedBatchNormV3", "op": "BiasAdd", "input": ["faster/res6_2/deepwise1/conv3/Conv2D", "faster/res6_2/deepwise1/conv3/Conv2D_bn_offset"], "attr": {"T": {"type": "DT_FLOAT"}, "data_format": {"s": "TkhXQw=="}}}, {"name": "faster/res6_2/add", "op": "AddV2", "input": ["faster/res6_2/deepwise1/conv3/batch_normalization/FusedBatchNormV3", "faster/res6_1/add"], "attr": {"T": {"type": "DT_FLOAT"}}}, {"name": "faster/res6_3/deepwise1/conv1/Conv2D", "op": "Conv2D", "input": ["faster/res6_2/add", "faster/res6_3/deepwise1/conv1/Conv2D_weights"], "device": "/device:CPU:0", "attr": {"T": {"type": "DT_FLOAT"}, "use_cudnn_on_gpu": {"b": true}, "explicit_paddings": {"list": {}}, "data_format": {"s": "TkhXQw=="}, "strides": {"list": {"i": ["1", "1", "1", "1"]}}, "dilations": {"list": {"i": ["1", "1", "1", "1"]}}, "padding": {"s": "U0FNRQ=="}}}, {"name": "faster/res6_3/deepwise1/conv1/batch_normalization/FusedBatchNormV3", "op": "BiasAdd", "input": ["faster/res6_3/deepwise1/conv1/Conv2D", "faster/res6_3/deepwise1/conv1/Conv2D_bn_offset"], "attr": {"data_format": {"s": "TkhXQw=="}, "T": {"type": "DT_FLOAT"}}}, {"name": "faster/res6_3/deepwise1/conv1/Relu", "op": "Relu", "input": ["faster/res6_3/deepwise1/conv1/batch_normalization/FusedBatchNormV3"], "attr": {"T": {"type": "DT_FLOAT"}}}, {"name": "faster/res6_3/deepwise1/conv2_1", "op": "FusedDepthwiseConv2dNative", "input": ["faster/res6_3/deepwise1/conv1/Relu", "faster/res6_3/deepwise1/conv2_1_weights", "faster/res6_3/deepwise1/conv2_1_bn_offset"], "attr": {"num_args": {"i": "1"}, "fused_ops": {"list": {"s": ["Qmlhc0FkZA==", "UmVsdQ=="]}}, "padding": {"s": "U0FNRQ=="}, "strides": {"list": {"i": ["1", "1", "1", "1"]}}, "explicit_paddings": {"list": {}}, "T": {"type": "DT_FLOAT"}, "data_format": {"s": "TkhXQw=="}, "dilations": {"list": {"i": ["1", "1", "1", "1"]}}}}, {"name": "faster/res6_3/deepwise1/conv3/Conv2D", "op": "Conv2D", "input": ["faster/res6_3/deepwise1/conv2_1", "faster/res6_3/deepwise1/conv3/Conv2D_weights"], "device": "/device:CPU:0", "attr": {"strides": {"list": {"i": ["1", "1", "1", "1"]}}, "explicit_paddings": {"list": {}}, "padding": {"s": "U0FNRQ=="}, "T": {"type": "DT_FLOAT"}, "dilations": {"list": {"i": ["1", "1", "1", "1"]}}, "use_cudnn_on_gpu": {"b": true}, "data_format": {"s": "TkhXQw=="}}}, {"name": "faster/res6_3/deepwise1/conv3/batch_normalization/FusedBatchNormV3", "op": "BiasAdd", "input": ["faster/res6_3/deepwise1/conv3/Conv2D", "faster/res6_3/deepwise1/conv3/Conv2D_bn_offset"], "attr": {"T": {"type": "DT_FLOAT"}, "data_format": {"s": "TkhXQw=="}}}, {"name": "faster/res6_3/add", "op": "AddV2", "input": ["faster/res6_3/deepwise1/conv3/batch_normalization/FusedBatchNormV3", "faster/res6_2/add"], "attr": {"T": {"type": "DT_FLOAT"}}}, {"name": "faster/res6_4/deepwise1/conv1/Conv2D", "op": "Conv2D", "input": ["faster/res6_3/add", "faster/res6_4/deepwise1/conv1/Conv2D_weights"], "device": "/device:CPU:0", "attr": {"T": {"type": "DT_FLOAT"}, "use_cudnn_on_gpu": {"b": true}, "padding": {"s": "U0FNRQ=="}, "explicit_paddings": {"list": {}}, "dilations": {"list": {"i": ["1", "1", "1", "1"]}}, "strides": {"list": {"i": ["1", "1", "1", "1"]}}, "data_format": {"s": "TkhXQw=="}}}, {"name": "faster/res6_4/deepwise1/conv1/batch_normalization/FusedBatchNormV3", "op": "BiasAdd", "input": ["faster/res6_4/deepwise1/conv1/Conv2D", "faster/res6_4/deepwise1/conv1/Conv2D_bn_offset"], "attr": {"data_format": {"s": "TkhXQw=="}, "T": {"type": "DT_FLOAT"}}}, {"name": "faster/res6_4/deepwise1/conv1/Relu", "op": "Relu", "input": ["faster/res6_4/deepwise1/conv1/batch_normalization/FusedBatchNormV3"], "attr": {"T": {"type": "DT_FLOAT"}}}, {"name": "faster/res6_4/deepwise1/conv2_1", "op": "FusedDepthwiseConv2dNative", "input": ["faster/res6_4/deepwise1/conv1/Relu", "faster/res6_4/deepwise1/conv2_1_weights", "faster/res6_4/deepwise1/conv2_1_bn_offset"], "attr": {"explicit_paddings": {"list": {}}, "dilations": {"list": {"i": ["1", "1", "1", "1"]}}, "strides": {"list": {"i": ["1", "1", "1", "1"]}}, "T": {"type": "DT_FLOAT"}, "padding": {"s": "U0FNRQ=="}, "data_format": {"s": "TkhXQw=="}, "num_args": {"i": "1"}, "fused_ops": {"list": {"s": ["Qmlhc0FkZA==", "UmVsdQ=="]}}}}, {"name": "faster/res6_4/deepwise1/conv3/Conv2D", "op": "Conv2D", "input": ["faster/res6_4/deepwise1/conv2_1", "faster/res6_4/deepwise1/conv3/Conv2D_weights"], "device": "/device:CPU:0", "attr": {"strides": {"list": {"i": ["1", "1", "1", "1"]}}, "T": {"type": "DT_FLOAT"}, "data_format": {"s": "TkhXQw=="}, "padding": {"s": "U0FNRQ=="}, "dilations": {"list": {"i": ["1", "1", "1", "1"]}}, "use_cudnn_on_gpu": {"b": true}, "explicit_paddings": {"list": {}}}}, {"name": "faster/res6_4/deepwise1/conv3/batch_normalization/FusedBatchNormV3", "op": "BiasAdd", "input": ["faster/res6_4/deepwise1/conv3/Conv2D", "faster/res6_4/deepwise1/conv3/Conv2D_bn_offset"], "attr": {"T": {"type": "DT_FLOAT"}, "data_format": {"s": "TkhXQw=="}}}, {"name": "faster/res6_4/add", "op": "AddV2", "input": ["faster/res6_4/deepwise1/conv3/batch_normalization/FusedBatchNormV3", "faster/res6_3/add"], "attr": {"T": {"type": "DT_FLOAT"}}}, {"name": "faster/conv3/Conv2D", "op": "Conv2D", "input": ["faster/res6_4/add", "faster/conv3/Conv2D_weights"], "device": "/device:CPU:0", "attr": {"data_format": {"s": "TkhXQw=="}, "T": {"type": "DT_FLOAT"}, "dilations": {"list": {"i": ["1", "1", "1", "1"]}}, "explicit_paddings": {"list": {}}, "strides": {"list": {"i": ["1", "1", "1", "1"]}}, "use_cudnn_on_gpu": {"b": true}, "padding": {"s": "U0FNRQ=="}}}, {"name": "faster/conv3/batch_normalization/FusedBatchNormV3", "op": "BiasAdd", "input": ["faster/conv3/Conv2D", "faster/conv3/Conv2D_bn_offset"], "attr": {"data_format": {"s": "TkhXQw=="}, "T": {"type": "DT_FLOAT"}}}, {"name": "faster/conv3/Relu", "op": "Relu", "input": ["faster/conv3/batch_normalization/FusedBatchNormV3"], "attr": {"T": {"type": "DT_FLOAT"}}}, {"name": "faster/upsample0/Shape", "op": "Shape", "input": ["faster/conv3/Relu"], "attr": {"T": {"type": "DT_FLOAT"}, "out_type": {"type": "DT_INT32"}}}, {"name": "faster/d7/conv2_1", "op": "FusedDepthwiseConv2dNative", "input": ["faster/conv3/Relu", "faster/d7/conv2_1_weights", "faster/d7/conv2_1_bn_offset"], "attr": {"strides": {"list": {"i": ["1", "1", "1", "1"]}}, "explicit_paddings": {"list": {}}, "padding": {"s": "U0FNRQ=="}, "dilations": {"list": {"i": ["1", "1", "1", "1"]}}, "T": {"type": "DT_FLOAT"}, "num_args": {"i": "1"}, "data_format": {"s": "TkhXQw=="}, "fused_ops": {"list": {"s": ["Qmlhc0FkZA==", "UmVsdQ=="]}}}}, {"name": "faster/upsample0/strided_slice", "op": "StridedSlice", "input": ["faster/upsample0/Shape", "faster/upsample0/strided_slice/stack", "faster/upsample0/strided_slice/stack_1", "faster/upsample0/strided_slice/stack_2"], "attr": {"ellipsis_mask": {"i": "0"}, "shrink_axis_mask": {"i": "1"}, "Index": {"type": "DT_INT32"}, "end_mask": {"i": "0"}, "T": {"type": "DT_INT32"}, "begin_mask": {"i": "0"}, "new_axis_mask": {"i": "0"}}}, {"name": "faster/upsample0/strided_slice_1", "op": "StridedSlice", "input": ["faster/upsample0/Shape", "faster/upsample0/strided_slice_1/stack", "faster/upsample0/strided_slice_1/stack_1", "faster/upsample0/strided_slice_1/stack_2"], "attr": {"T": {"type": "DT_INT32"}, "Index": {"type": "DT_INT32"}, "ellipsis_mask": {"i": "0"}, "end_mask": {"i": "0"}, "begin_mask": {"i": "0"}, "new_axis_mask": {"i": "0"}, "shrink_axis_mask": {"i": "1"}}}, {"name": "faster/upsample0/mul", "op": "Mul", "input": ["faster/upsample0/strided_slice", "faster/upsample0/mul/y"], "attr": {"T": {"type": "DT_INT32"}}}, {"name": "faster/upsample0/mul_1", "op": "Mul", "input": ["faster/upsample0/strided_slice_1", "faster/upsample0/mul_1/y"], "attr": {"T": {"type": "DT_INT32"}}}, {"name": "faster/upsample0/ResizeNearestNeighbor/size", "op": "Pack", "input": ["faster/upsample0/mul", "faster/upsample0/mul_1"], "attr": {"axis": {"i": "0"}, "T": {"type": "DT_INT32"}, "N": {"i": "2"}}}, {"name": "faster/d7/conv3/Conv2D", "op": "Conv2D", "input": ["faster/d7/conv2_1", "faster/d7/conv3/Conv2D_weights"], "device": "/device:CPU:0", "attr": {"use_cudnn_on_gpu": {"b": true}, "dilations": {"list": {"i": ["1", "1", "1", "1"]}}, "padding": {"s": "U0FNRQ=="}, "explicit_paddings": {"list": {}}, "strides": {"list": {"i": ["1", "1", "1", "1"]}}, "data_format": {"s": "TkhXQw=="}, "T": {"type": "DT_FLOAT"}}}, {"name": "faster/upsample0/ResizeNearestNeighbor", "op": "ResizeNearestNeighbor", "input": ["faster/conv3/Relu", "faster/upsample0/ResizeNearestNeighbor/size"], "attr": {"T": {"type": "DT_FLOAT"}, "half_pixel_centers": {"b": false}, "align_corners": {"b": false}}}, {"name": "faster/d7/conv3/batch_normalization/FusedBatchNormV3", "op": "BiasAdd", "input": ["faster/d7/conv3/Conv2D", "faster/d7/conv3/Conv2D_bn_offset"], "attr": {"T": {"type": "DT_FLOAT"}, "data_format": {"s": "TkhXQw=="}}}, {"name": "faster/concat", "op": "ConcatV2", "input": ["faster/upsample0/ResizeNearestNeighbor", "faster/conv2/Relu", "faster/concat/axis"], "attr": {"Tidx": {"type": "DT_INT32"}, "T": {"type": "DT_FLOAT"}, "N": {"i": "2"}}}, {"name": "faster/d8/conv2_1", "op": "FusedDepthwiseConv2dNative", "input": ["faster/d7/conv3/batch_normalization/FusedBatchNormV3", "faster/d8/conv2_1_weights", "faster/d8/conv2_1_bn_offset"], "attr": {"dilations": {"list": {"i": ["1", "1", "1", "1"]}}, "padding": {"s": "U0FNRQ=="}, "explicit_paddings": {"list": {}}, "T": {"type": "DT_FLOAT"}, "num_args": {"i": "1"}, "strides": {"list": {"i": ["1", "1", "1", "1"]}}, "fused_ops": {"list": {"s": ["Qmlhc0FkZA==", "UmVsdQ=="]}}, "data_format": {"s": "TkhXQw=="}}}, {"name": "conv5/Conv2D", "op": "Conv2D", "input": ["faster/concat", "conv5/Conv2D_weights"], "device": "/device:CPU:0", "attr": {"data_format": {"s": "TkhXQw=="}, "strides": {"list": {"i": ["1", "1", "1", "1"]}}, "dilations": {"list": {"i": ["1", "1", "1", "1"]}}, "explicit_paddings": {"list": {}}, "use_cudnn_on_gpu": {"b": true}, "T": {"type": "DT_FLOAT"}, "padding": {"s": "U0FNRQ=="}}}, {"name": "conv5/batch_normalization/FusedBatchNormV3", "op": "BiasAdd", "input": ["conv5/Conv2D", "conv5/Conv2D_bn_offset"], "attr": {"T": {"type": "DT_FLOAT"}, "data_format": {"s": "TkhXQw=="}}}, {"name": "conv5/Relu", "op": "Relu", "input": ["conv5/batch_normalization/FusedBatchNormV3"], "attr": {"T": {"type": "DT_FLOAT"}}}, {"name": "faster/d8/conv3/Conv2D", "op": "Conv2D", "input": ["faster/d8/conv2_1", "faster/d8/conv3/Conv2D_weights"], "device": "/device:CPU:0", "attr": {"T": {"type": "DT_FLOAT"}, "strides": {"list": {"i": ["1", "1", "1", "1"]}}, "use_cudnn_on_gpu": {"b": true}, "padding": {"s": "U0FNRQ=="}, "data_format": {"s": "TkhXQw=="}, "dilations": {"list": {"i": ["1", "1", "1", "1"]}}, "explicit_paddings": {"list": {}}}}, {"name": "d9/conv2_1", "op": "FusedDepthwiseConv2dNative", "input": ["conv5/Relu", "d9/conv2_1_weights", "d9/conv2_1_bn_offset"], "attr": {"num_args": {"i": "1"}, "data_format": {"s": "TkhXQw=="}, "dilations": {"list": {"i": ["1", "1", "1", "1"]}}, "padding": {"s": "U0FNRQ=="}, "fused_ops": {"list": {"s": ["Qmlhc0FkZA==", "UmVsdQ=="]}}, "strides": {"list": {"i": ["1", "1", "1", "1"]}}, "explicit_paddings": {"list": {}}, "T": {"type": "DT_FLOAT"}}}, {"name": "faster/d8/conv3/batch_normalization/FusedBatchNormV3", "op": "BiasAdd", "input": ["faster/d8/conv3/Conv2D", "faster/d8/conv3/Conv2D_bn_offset"], "attr": {"T": {"type": "DT_FLOAT"}, "data_format": {"s": "TkhXQw=="}}}, {"name": "faster/conv7/Conv2D", "op": "Conv2D", "input": ["faster/d8/conv3/batch_normalization/FusedBatchNormV3", "faster/conv7/weight"], "device": "/device:CPU:0", "attr": {"data_format": {"s": "TkhXQw=="}, "dilations": {"list": {"i": ["1", "1", "1", "1"]}}, "padding": {"s": "U0FNRQ=="}, "strides": {"list": {"i": ["1", "1", "1", "1"]}}, "use_cudnn_on_gpu": {"b": true}, "T": {"type": "DT_FLOAT"}, "explicit_paddings": {"list": {}}}}, {"name": "faster/conv7/BiasAdd", "op": "BiasAdd", "input": ["faster/conv7/Conv2D", "faster/conv7/bias"], "attr": {"data_format": {"s": "TkhXQw=="}, "T": {"type": "DT_FLOAT"}}}, {"name": "d9/conv3/Conv2D", "op": "Conv2D", "input": ["d9/conv2_1", "d9/conv3/Conv2D_weights"], "device": "/device:CPU:0", "attr": {"use_cudnn_on_gpu": {"b": true}, "T": {"type": "DT_FLOAT"}, "strides": {"list": {"i": ["1", "1", "1", "1"]}}, "dilations": {"list": {"i": ["1", "1", "1", "1"]}}, "data_format": {"s": "TkhXQw=="}, "padding": {"s": "U0FNRQ=="}, "explicit_paddings": {"list": {}}}}, {"name": "pred_lbbox/Shape", "op": "Shape", "input": ["faster/conv7/BiasAdd"], "attr": {"T": {"type": "DT_FLOAT"}, "out_type": {"type": "DT_INT32"}}}, {"name": "d9/conv3/batch_normalization/FusedBatchNormV3", "op": "BiasAdd", "input": ["d9/conv3/Conv2D", "d9/conv3/Conv2D_bn_offset"], "attr": {"data_format": {"s": "TkhXQw=="}, "T": {"type": "DT_FLOAT"}}}, {"name": "pred_lbbox/strided_slice_3", "op": "StridedSlice", "input": ["pred_lbbox/Shape", "pred_lbbox/strided_slice_3/stack", "pred_lbbox/strided_slice_3/stack_1", "pred_lbbox/strided_slice_3/stack_2"], "attr": {"ellipsis_mask": {"i": "0"}, "begin_mask": {"i": "0"}, "T": {"type": "DT_INT32"}, "Index": {"type": "DT_INT32"}, "end_mask": {"i": "0"}, "new_axis_mask": {"i": "0"}, "shrink_axis_mask": {"i": "0"}}}, {"name": "pred_lbbox/strided_slice", "op": "StridedSlice", "input": ["pred_lbbox/Shape", "pred_lbbox/strided_slice/stack", "pred_lbbox/strided_slice/stack_1", "pred_lbbox/strided_slice/stack_2"], "attr": {"ellipsis_mask": {"i": "0"}, "begin_mask": {"i": "0"}, "T": {"type": "DT_INT32"}, "shrink_axis_mask": {"i": "1"}, "Index": {"type": "DT_INT32"}, "new_axis_mask": {"i": "0"}, "end_mask": {"i": "0"}}}, {"name": "pred_lbbox/strided_slice_1", "op": "StridedSlice", "input": ["pred_lbbox/Shape", "pred_lbbox/strided_slice_1/stack", "pred_lbbox/strided_slice_1/stack_1", "pred_lbbox/strided_slice_1/stack_2"], "attr": {"T": {"type": "DT_INT32"}, "shrink_axis_mask": {"i": "1"}, "end_mask": {"i": "0"}, "new_axis_mask": {"i": "0"}, "ellipsis_mask": {"i": "0"}, "begin_mask": {"i": "0"}, "Index": {"type": "DT_INT32"}}}, {"name": "pred_lbbox/strided_slice_2", "op": "StridedSlice", "input": ["pred_lbbox/Shape", "pred_lbbox/strided_slice_2/stack", "pred_lbbox/strided_slice_2/stack_1", "pred_lbbox/strided_slice_2/stack_2"], "attr": {"begin_mask": {"i": "0"}, "T": {"type": "DT_INT32"}, "new_axis_mask": {"i": "0"}, "Index": {"type": "DT_INT32"}, "end_mask": {"i": "0"}, "shrink_axis_mask": {"i": "1"}, "ellipsis_mask": {"i": "0"}}}, {"name": "d10/conv2_1", "op": "FusedDepthwiseConv2dNative", "input": ["d9/conv3/batch_normalization/FusedBatchNormV3", "d10/conv2_1_weights", "d10/conv2_1_bn_offset"], "attr": {"num_args": {"i": "1"}, "fused_ops": {"list": {"s": ["Qmlhc0FkZA==", "UmVsdQ=="]}}, "padding": {"s": "U0FNRQ=="}, "explicit_paddings": {"list": {}}, "strides": {"list": {"i": ["1", "1", "1", "1"]}}, "dilations": {"list": {"i": ["1", "1", "1", "1"]}}, "data_format": {"s": "TkhXQw=="}, "T": {"type": "DT_FLOAT"}}}, {"name": "pred_lbbox/strided_slice_13", "op": "StridedSlice", "input": ["pred_lbbox/strided_slice_3", "pred_lbbox/strided_slice_13/stack", "pred_lbbox/strided_slice_13/stack_1", "pred_lbbox/strided_slice_13/stack_2"], "attr": {"begin_mask": {"i": "1"}, "Index": {"type": "DT_INT32"}, "T": {"type": "DT_INT32"}, "shrink_axis_mask": {"i": "0"}, "new_axis_mask": {"i": "0"}, "end_mask": {"i": "1"}, "ellipsis_mask": {"i": "0"}}}, {"name": "pred_lbbox/Tile_2/multiples", "op": "Pack", "input": ["pred_lbbox/strided_slice", "pred_lbbox/Tile_2/multiples/1", "pred_lbbox/Tile_2/multiples/2", "pred_lbbox/Tile_2/multiples/3", "pred_lbbox/Tile_2/multiples/4"], "attr": {"T": {"type": "DT_INT32"}, "axis": {"i": "0"}, "N": {"i": "5"}}}, {"name": "pred_lbbox/Tile_1/multiples", "op": "Pack", "input": ["pred_lbbox/strided_slice_1", "pred_lbbox/Tile_1/multiples/1"], "attr": {"N": {"i": "2"}, "axis": {"i": "0"}, "T": {"type": "DT_INT32"}}}, {"name": "pred_lbbox/range", "op": "Range", "input": ["pred_lbbox/range/start", "pred_lbbox/strided_slice_1", "pred_lbbox/range/delta"], "attr": {"Tidx": {"type": "DT_INT32"}}}, {"name": "pred_lbbox/range_1", "op": "Range", "input": ["pred_lbbox/range_1/start", "pred_lbbox/strided_slice_2", "pred_lbbox/range_1/delta"], "attr": {"Tidx": {"type": "DT_INT32"}}}, {"name": "pred_lbbox/Tile/multiples", "op": "Pack", "input": ["pred_lbbox/Tile/multiples/0", "pred_lbbox/strided_slice_2"], "attr": {"T": {"type": "DT_INT32"}, "N": {"i": "2"}, "axis": {"i": "0"}}}, {"name": "pred_lbbox/Reshape/shape", "op": "Pack", "input": ["pred_lbbox/strided_slice", "pred_lbbox/strided_slice_1", "pred_lbbox/strided_slice_2", "pred_lbbox/Reshape/shape/3", "pred_lbbox/Reshape/shape/4"], "attr": {"axis": {"i": "0"}, "T": {"type": "DT_INT32"}, "N": {"i": "5"}}}, {"name": "pred_lbbox/Cast_1", "op": "Cast", "input": ["pred_lbbox/strided_slice_13"], "attr": {"DstT": {"type": "DT_FLOAT"}, "SrcT": {"type": "DT_INT32"}, "Truncate": {"b": false}}}, {"name": "pred_lbbox/strided_slice_8", "op": "StridedSlice", "input": ["pred_lbbox/range", "pred_lbbox/strided_slice_8/stack", "pred_lbbox/strided_slice_8/stack_1", "pred_lbbox/strided_slice_8/stack_2"], "attr": {"shrink_axis_mask": {"i": "0"}, "Index": {"type": "DT_INT32"}, "T": {"type": "DT_INT32"}, "ellipsis_mask": {"i": "0"}, "new_axis_mask": {"i": "2"}, "begin_mask": {"i": "1"}, "end_mask": {"i": "1"}}}, {"name": "pred_lbbox/strided_slice_9", "op": "StridedSlice", "input": ["pred_lbbox/range_1", "pred_lbbox/strided_slice_9/stack", "pred_lbbox/strided_slice_9/stack_1", "pred_lbbox/strided_slice_9/stack_2"], "attr": {"new_axis_mask": {"i": "1"}, "shrink_axis_mask": {"i": "0"}, "Index": {"type": "DT_INT32"}, "T": {"type": "DT_INT32"}, "ellipsis_mask": {"i": "0"}, "begin_mask": {"i": "2"}, "end_mask": {"i": "2"}}}, {"name": "pred_lbbox/Reshape", "op": "Reshape", "input": ["faster/conv7/BiasAdd", "pred_lbbox/Reshape/shape"], "attr": {"Tshape": {"type": "DT_INT32"}, "T": {"type": "DT_FLOAT"}}}, {"name": "pred_lbbox/Tile", "op": "Tile", "input": ["pred_lbbox/strided_slice_8", "pred_lbbox/Tile/multiples"], "attr": {"Tmultiples": {"type": "DT_INT32"}, "T": {"type": "DT_INT32"}}}, {"name": "pred_lbbox/Tile_1", "op": "Tile", "input": ["pred_lbbox/strided_slice_9", "pred_lbbox/Tile_1/multiples"], "attr": {"T": {"type": "DT_INT32"}, "Tmultiples": {"type": "DT_INT32"}}}, {"name": "pred_lbbox/strided_slice_4", "op": "StridedSlice", "input": ["pred_lbbox/Reshape", "pred_lbbox/strided_slice_4/stack", "pred_lbbox/strided_slice_4/stack_1", "pred_lbbox/strided_slice_4/stack_2"], "attr": {"ellipsis_mask": {"i": "0"}, "Index": {"type": "DT_INT32"}, "T": {"type": "DT_FLOAT"}, "shrink_axis_mask": {"i": "0"}, "end_mask": {"i": "15"}, "begin_mask": {"i": "15"}, "new_axis_mask": {"i": "0"}}}, {"name": "pred_lbbox/strided_slice_5", "op": "StridedSlice", "input": ["pred_lbbox/Reshape", "pred_lbbox/strided_slice_5/stack", "pred_lbbox/strided_slice_5/stack_1", "pred_lbbox/strided_slice_5/stack_2"], "attr": {"ellipsis_mask": {"i": "0"}, "end_mask": {"i": "15"}, "T": {"type": "DT_FLOAT"}, "new_axis_mask": {"i": "0"}, "Index": {"type": "DT_INT32"}, "begin_mask": {"i": "15"}, "shrink_axis_mask": {"i": "0"}}}, {"name": "pred_lbbox/strided_slice_6", "op": "StridedSlice", "input": ["pred_lbbox/Reshape", "pred_lbbox/strided_slice_6/stack", "pred_lbbox/strided_slice_6/stack_1", "pred_lbbox/strided_slice_6/stack_2"], "attr": {"Index": {"type": "DT_INT32"}, "ellipsis_mask": {"i": "0"}, "new_axis_mask": {"i": "0"}, "shrink_axis_mask": {"i": "0"}, "T": {"type": "DT_FLOAT"}, "end_mask": {"i": "15"}, "begin_mask": {"i": "15"}}}, {"name": "pred_lbbox/strided_slice_7", "op": "StridedSlice", "input": ["pred_lbbox/Reshape", "pred_lbbox/strided_slice_7/stack", "pred_lbbox/strided_slice_7/stack_1", "pred_lbbox/strided_slice_7/stack_2"], "attr": {"end_mask": {"i": "31"}, "T": {"type": "DT_FLOAT"}, "Index": {"type": "DT_INT32"}, "shrink_axis_mask": {"i": "0"}, "begin_mask": {"i": "15"}, "ellipsis_mask": {"i": "0"}, "new_axis_mask": {"i": "0"}}}, {"name": "d10/conv3/Conv2D", "op": "Conv2D", "input": ["d10/conv2_1", "d10/conv3/Conv2D_weights"], "device": "/device:CPU:0", "attr": {"dilations": {"list": {"i": ["1", "1", "1", "1"]}}, "strides": {"list": {"i": ["1", "1", "1", "1"]}}, "padding": {"s": "U0FNRQ=="}, "use_cudnn_on_gpu": {"b": true}, "data_format": {"s": "TkhXQw=="}, "T": {"type": "DT_FLOAT"}, "explicit_paddings": {"list": {}}}}, {"name": "pred_lbbox/strided_slice_11", "op": "StridedSlice", "input": ["pred_lbbox/Tile", "pred_lbbox/strided_slice_11/stack", "pred_lbbox/strided_slice_11/stack_1", "pred_lbbox/strided_slice_11/stack_2"], "attr": {"T": {"type": "DT_INT32"}, "ellipsis_mask": {"i": "0"}, "shrink_axis_mask": {"i": "0"}, "end_mask": {"i": "3"}, "begin_mask": {"i": "3"}, "new_axis_mask": {"i": "4"}, "Index": {"type": "DT_INT32"}}}, {"name": "pred_lbbox/strided_slice_10", "op": "StridedSlice", "input": ["pred_lbbox/Tile_1", "pred_lbbox/strided_slice_10/stack", "pred_lbbox/strided_slice_10/stack_1", "pred_lbbox/strided_slice_10/stack_2"], "attr": {"T": {"type": "DT_INT32"}, "ellipsis_mask": {"i": "0"}, "Index": {"type": "DT_INT32"}, "end_mask": {"i": "3"}, "begin_mask": {"i": "3"}, "new_axis_mask": {"i": "4"}, "shrink_axis_mask": {"i": "0"}}}, {"name": "pred_lbbox/Sigmoid", "op": "Sigmoid", "input": ["pred_lbbox/strided_slice_4"], "attr": {"T": {"type": "DT_FLOAT"}}}, {"name": "pred_lbbox/Exp", "op": "Exp", "input": ["pred_lbbox/strided_slice_5"], "attr": {"T": {"type": "DT_FLOAT"}}}, {"name": "pred_lbbox/Sigmoid_1", "op": "Sigmoid", "input": ["pred_lbbox/strided_slice_6"], "attr": {"T": {"type": "DT_FLOAT"}}}, {"name": "pred_lbbox/Sigmoid_2", "op": "Sigmoid", "input": ["pred_lbbox/strided_slice_7"], "attr": {"T": {"type": "DT_FLOAT"}}}, {"name": "d10/conv3/batch_normalization/FusedBatchNormV3", "op": "BiasAdd", "input": ["d10/conv3/Conv2D", "d10/conv3/Conv2D_bn_offset"], "attr": {"T": {"type": "DT_FLOAT"}, "data_format": {"s": "TkhXQw=="}}}, {"name": "pred_lbbox/concat", "op": "ConcatV2", "input": ["pred_lbbox/strided_slice_10", "pred_lbbox/strided_slice_11", "pred_lbbox/concat/axis"], "attr": {"T": {"type": "DT_INT32"}, "Tidx": {"type": "DT_INT32"}, "N": {"i": "2"}}}, {"name": "pred_lbbox/mul", "op": "Mul", "input": ["pred_lbbox/Exp", "pred_lbbox/mul/y"], "attr": {"T": {"type": "DT_FLOAT"}}}, {"name": "conv6/Conv2D", "op": "Conv2D", "input": ["d10/conv3/batch_normalization/FusedBatchNormV3", "conv6/weight"], "device": "/device:CPU:0", "attr": {"data_format": {"s": "TkhXQw=="}, "padding": {"s": "U0FNRQ=="}, "explicit_paddings": {"list": {}}, "T": {"type": "DT_FLOAT"}, "strides": {"list": {"i": ["1", "1", "1", "1"]}}, "use_cudnn_on_gpu": {"b": true}, "dilations": {"list": {"i": ["1", "1", "1", "1"]}}}}, {"name": "pred_lbbox/strided_slice_12", "op": "StridedSlice", "input": ["pred_lbbox/concat", "pred_lbbox/strided_slice_12/stack", "pred_lbbox/strided_slice_12/stack_1", "pred_lbbox/strided_slice_12/stack_2"], "attr": {"begin_mask": {"i": "22"}, "new_axis_mask": {"i": "9"}, "shrink_axis_mask": {"i": "0"}, "ellipsis_mask": {"i": "0"}, "Index": {"type": "DT_INT32"}, "T": {"type": "DT_INT32"}, "end_mask": {"i": "22"}}}, {"name": "pred_lbbox/truediv_1", "op": "Mul", "input": ["pred_lbbox/mul", "ConstantFolding/pred_lbbox/truediv_1_recip"], "attr": {"T": {"type": "DT_FLOAT"}}}, {"name": "conv6/BiasAdd", "op": "BiasAdd", "input": ["conv6/Conv2D", "conv6/bias"], "attr": {"T": {"type": "DT_FLOAT"}, "data_format": {"s": "TkhXQw=="}}}, {"name": "pred_lbbox/Tile_2", "op": "Tile", "input": ["pred_lbbox/strided_slice_12", "pred_lbbox/Tile_2/multiples"], "attr": {"Tmultiples": {"type": "DT_INT32"}, "T": {"type": "DT_INT32"}}}, {"name": "pred_sbbox/Shape", "op": "Shape", "input": ["conv6/BiasAdd"], "attr": {"out_type": {"type": "DT_INT32"}, "T": {"type": "DT_FLOAT"}}}, {"name": "pred_lbbox/Cast", "op": "Cast", "input": ["pred_lbbox/Tile_2"], "attr": {"SrcT": {"type": "DT_INT32"}, "Truncate": {"b": false}, "DstT": {"type": "DT_FLOAT"}}}, {"name": "pred_sbbox/strided_slice_3", "op": "StridedSlice", "input": ["pred_sbbox/Shape", "pred_sbbox/strided_slice_3/stack", "pred_sbbox/strided_slice_3/stack_1", "pred_sbbox/strided_slice_3/stack_2"], "attr": {"end_mask": {"i": "0"}, "T": {"type": "DT_INT32"}, "new_axis_mask": {"i": "0"}, "ellipsis_mask": {"i": "0"}, "begin_mask": {"i": "0"}, "Index": {"type": "DT_INT32"}, "shrink_axis_mask": {"i": "0"}}}, {"name": "pred_sbbox/strided_slice", "op": "StridedSlice", "input": ["pred_sbbox/Shape", "pred_sbbox/strided_slice/stack", "pred_sbbox/strided_slice/stack_1", "pred_sbbox/strided_slice/stack_2"], "attr": {"end_mask": {"i": "0"}, "shrink_axis_mask": {"i": "1"}, "Index": {"type": "DT_INT32"}, "ellipsis_mask": {"i": "0"}, "begin_mask": {"i": "0"}, "new_axis_mask": {"i": "0"}, "T": {"type": "DT_INT32"}}}, {"name": "pred_sbbox/strided_slice_1", "op": "StridedSlice", "input": ["pred_sbbox/Shape", "pred_sbbox/strided_slice_1/stack", "pred_sbbox/strided_slice_1/stack_1", "pred_sbbox/strided_slice_1/stack_2"], "attr": {"end_mask": {"i": "0"}, "new_axis_mask": {"i": "0"}, "begin_mask": {"i": "0"}, "shrink_axis_mask": {"i": "1"}, "T": {"type": "DT_INT32"}, "Index": {"type": "DT_INT32"}, "ellipsis_mask": {"i": "0"}}}, {"name": "pred_sbbox/strided_slice_2", "op": "StridedSlice", "input": ["pred_sbbox/Shape", "pred_sbbox/strided_slice_2/stack", "pred_sbbox/strided_slice_2/stack_1", "pred_sbbox/strided_slice_2/stack_2"], "attr": {"new_axis_mask": {"i": "0"}, "ellipsis_mask": {"i": "0"}, "Index": {"type": "DT_INT32"}, "begin_mask": {"i": "0"}, "shrink_axis_mask": {"i": "1"}, "end_mask": {"i": "0"}, "T": {"type": "DT_INT32"}}}, {"name": "pred_lbbox/add", "op": "AddV2", "input": ["pred_lbbox/Sigmoid", "pred_lbbox/Cast"], "attr": {"T": {"type": "DT_FLOAT"}}}, {"name": "pred_sbbox/strided_slice_13", "op": "StridedSlice", "input": ["pred_sbbox/strided_slice_3", "pred_sbbox/strided_slice_13/stack", "pred_sbbox/strided_slice_13/stack_1", "pred_sbbox/strided_slice_13/stack_2"], "attr": {"T": {"type": "DT_INT32"}, "end_mask": {"i": "1"}, "ellipsis_mask": {"i": "0"}, "new_axis_mask": {"i": "0"}, "shrink_axis_mask": {"i": "0"}, "begin_mask": {"i": "1"}, "Index": {"type": "DT_INT32"}}}, {"name": "pred_sbbox/Tile_2/multiples", "op": "Pack", "input": ["pred_sbbox/strided_slice", "pred_sbbox/Tile_2/multiples/1", "pred_sbbox/Tile_2/multiples/2", "pred_sbbox/Tile_2/multiples/3", "pred_sbbox/Tile_2/multiples/4"], "attr": {"axis": {"i": "0"}, "T": {"type": "DT_INT32"}, "N": {"i": "5"}}}, {"name": "pred_sbbox/Tile_1/multiples", "op": "Pack", "input": ["pred_sbbox/strided_slice_1", "pred_sbbox/Tile_1/multiples/1"], "attr": {"axis": {"i": "0"}, "T": {"type": "DT_INT32"}, "N": {"i": "2"}}}, {"name": "pred_sbbox/range", "op": "Range", "input": ["pred_sbbox/range/start", "pred_sbbox/strided_slice_1", "pred_sbbox/range/delta"], "attr": {"Tidx": {"type": "DT_INT32"}}}, {"name": "pred_sbbox/range_1", "op": "Range", "input": ["pred_sbbox/range_1/start", "pred_sbbox/strided_slice_2", "pred_sbbox/range_1/delta"], "attr": {"Tidx": {"type": "DT_INT32"}}}, {"name": "pred_sbbox/Tile/multiples", "op": "Pack", "input": ["pred_sbbox/Tile/multiples/0", "pred_sbbox/strided_slice_2"], "attr": {"axis": {"i": "0"}, "T": {"type": "DT_INT32"}, "N": {"i": "2"}}}, {"name": "pred_sbbox/Reshape/shape", "op": "Pack", "input": ["pred_sbbox/strided_slice", "pred_sbbox/strided_slice_1", "pred_sbbox/strided_slice_2", "pred_sbbox/Reshape/shape/3", "pred_sbbox/Reshape/shape/4"], "attr": {"T": {"type": "DT_INT32"}, "N": {"i": "5"}, "axis": {"i": "0"}}}, {"name": "pred_lbbox/truediv", "op": "RealDiv", "input": ["pred_lbbox/add", "pred_lbbox/Cast_1"], "attr": {"T": {"type": "DT_FLOAT"}}}, {"name": "pred_sbbox/Cast_1", "op": "Cast", "input": ["pred_sbbox/strided_slice_13"], "attr": {"DstT": {"type": "DT_FLOAT"}, "Truncate": {"b": false}, "SrcT": {"type": "DT_INT32"}}}, {"name": "pred_sbbox/strided_slice_8", "op": "StridedSlice", "input": ["pred_sbbox/range", "pred_sbbox/strided_slice_8/stack", "pred_sbbox/strided_slice_8/stack_1", "pred_sbbox/strided_slice_8/stack_2"], "attr": {"end_mask": {"i": "1"}, "Index": {"type": "DT_INT32"}, "ellipsis_mask": {"i": "0"}, "T": {"type": "DT_INT32"}, "shrink_axis_mask": {"i": "0"}, "begin_mask": {"i": "1"}, "new_axis_mask": {"i": "2"}}}, {"name": "pred_sbbox/strided_slice_9", "op": "StridedSlice", "input": ["pred_sbbox/range_1", "pred_sbbox/strided_slice_9/stack", "pred_sbbox/strided_slice_9/stack_1", "pred_sbbox/strided_slice_9/stack_2"], "attr": {"T": {"type": "DT_INT32"}, "end_mask": {"i": "2"}, "ellipsis_mask": {"i": "0"}, "shrink_axis_mask": {"i": "0"}, "new_axis_mask": {"i": "1"}, "begin_mask": {"i": "2"}, "Index": {"type": "DT_INT32"}}}, {"name": "pred_sbbox/Reshape", "op": "Reshape", "input": ["conv6/BiasAdd", "pred_sbbox/Reshape/shape"], "attr": {"T": {"type": "DT_FLOAT"}, "Tshape": {"type": "DT_INT32"}}}, {"name": "pred_lbbox/concat_1", "op": "ConcatV2", "input": ["pred_lbbox/truediv", "pred_lbbox/truediv_1", "pred_lbbox/concat_1/axis"], "attr": {"N": {"i": "2"}, "T": {"type": "DT_FLOAT"}, "Tidx": {"type": "DT_INT32"}}}, {"name": "pred_sbbox/Tile", "op": "Tile", "input": ["pred_sbbox/strided_slice_8", "pred_sbbox/Tile/multiples"], "attr": {"Tmultiples": {"type": "DT_INT32"}, "T": {"type": "DT_INT32"}}}, {"name": "pred_sbbox/Tile_1", "op": "Tile", "input": ["pred_sbbox/strided_slice_9", "pred_sbbox/Tile_1/multiples"], "attr": {"T": {"type": "DT_INT32"}, "Tmultiples": {"type": "DT_INT32"}}}, {"name": "pred_sbbox/strided_slice_4", "op": "StridedSlice", "input": ["pred_sbbox/Reshape", "pred_sbbox/strided_slice_4/stack", "pred_sbbox/strided_slice_4/stack_1", "pred_sbbox/strided_slice_4/stack_2"], "attr": {"T": {"type": "DT_FLOAT"}, "new_axis_mask": {"i": "0"}, "begin_mask": {"i": "15"}, "ellipsis_mask": {"i": "0"}, "shrink_axis_mask": {"i": "0"}, "end_mask": {"i": "15"}, "Index": {"type": "DT_INT32"}}}, {"name": "pred_sbbox/strided_slice_5", "op": "StridedSlice", "input": ["pred_sbbox/Reshape", "pred_sbbox/strided_slice_5/stack", "pred_sbbox/strided_slice_5/stack_1", "pred_sbbox/strided_slice_5/stack_2"], "attr": {"shrink_axis_mask": {"i": "0"}, "T": {"type": "DT_FLOAT"}, "end_mask": {"i": "15"}, "new_axis_mask": {"i": "0"}, "Index": {"type": "DT_INT32"}, "ellipsis_mask": {"i": "0"}, "begin_mask": {"i": "15"}}}, {"name": "pred_sbbox/strided_slice_6", "op": "StridedSlice", "input": ["pred_sbbox/Reshape", "pred_sbbox/strided_slice_6/stack", "pred_sbbox/strided_slice_6/stack_1", "pred_sbbox/strided_slice_6/stack_2"], "attr": {"end_mask": {"i": "15"}, "ellipsis_mask": {"i": "0"}, "T": {"type": "DT_FLOAT"}, "Index": {"type": "DT_INT32"}, "begin_mask": {"i": "15"}, "shrink_axis_mask": {"i": "0"}, "new_axis_mask": {"i": "0"}}}, {"name": "pred_sbbox/strided_slice_7", "op": "StridedSlice", "input": ["pred_sbbox/Reshape", "pred_sbbox/strided_slice_7/stack", "pred_sbbox/strided_slice_7/stack_1", "pred_sbbox/strided_slice_7/stack_2"], "attr": {"shrink_axis_mask": {"i": "0"}, "end_mask": {"i": "31"}, "ellipsis_mask": {"i": "0"}, "Index": {"type": "DT_INT32"}, "T": {"type": "DT_FLOAT"}, "begin_mask": {"i": "15"}, "new_axis_mask": {"i": "0"}}}, {"name": "pred_lbbox/concat_2", "op": "ConcatV2", "input": ["pred_lbbox/concat_1", "pred_lbbox/Sigmoid_1", "pred_lbbox/Sigmoid_2", "pred_lbbox/concat_2/axis"], "attr": {"Tidx": {"type": "DT_INT32"}, "T": {"type": "DT_FLOAT"}, "N": {"i": "3"}}}, {"name": "pred_sbbox/strided_slice_11", "op": "StridedSlice", "input": ["pred_sbbox/Tile", "pred_sbbox/strided_slice_11/stack", "pred_sbbox/strided_slice_11/stack_1", "pred_sbbox/strided_slice_11/stack_2"], "attr": {"begin_mask": {"i": "3"}, "ellipsis_mask": {"i": "0"}, "end_mask": {"i": "3"}, "Index": {"type": "DT_INT32"}, "shrink_axis_mask": {"i": "0"}, "new_axis_mask": {"i": "4"}, "T": {"type": "DT_INT32"}}}, {"name": "pred_sbbox/strided_slice_10", "op": "StridedSlice", "input": ["pred_sbbox/Tile_1", "pred_sbbox/strided_slice_10/stack", "pred_sbbox/strided_slice_10/stack_1", "pred_sbbox/strided_slice_10/stack_2"], "attr": {"ellipsis_mask": {"i": "0"}, "begin_mask": {"i": "3"}, "Index": {"type": "DT_INT32"}, "shrink_axis_mask": {"i": "0"}, "new_axis_mask": {"i": "4"}, "end_mask": {"i": "3"}, "T": {"type": "DT_INT32"}}}, {"name": "pred_sbbox/Sigmoid", "op": "Sigmoid", "input": ["pred_sbbox/strided_slice_4"], "attr": {"T": {"type": "DT_FLOAT"}}}, {"name": "pred_sbbox/Exp", "op": "Exp", "input": ["pred_sbbox/strided_slice_5"], "attr": {"T": {"type": "DT_FLOAT"}}}, {"name": "pred_sbbox/Sigmoid_1", "op": "Sigmoid", "input": ["pred_sbbox/strided_slice_6"], "attr": {"T": {"type": "DT_FLOAT"}}}, {"name": "pred_sbbox/Sigmoid_2", "op": "Sigmoid", "input": ["pred_sbbox/strided_slice_7"], "attr": {"T": {"type": "DT_FLOAT"}}}, {"name": "pred_sbbox/concat", "op": "ConcatV2", "input": ["pred_sbbox/strided_slice_10", "pred_sbbox/strided_slice_11", "pred_sbbox/concat/axis"], "attr": {"T": {"type": "DT_INT32"}, "Tidx": {"type": "DT_INT32"}, "N": {"i": "2"}}}, {"name": "pred_sbbox/mul", "op": "Mul", "input": ["pred_sbbox/Exp", "pred_sbbox/mul/y"], "attr": {"T": {"type": "DT_FLOAT"}}}, {"name": "pred_sbbox/strided_slice_12", "op": "StridedSlice", "input": ["pred_sbbox/concat", "pred_sbbox/strided_slice_12/stack", "pred_sbbox/strided_slice_12/stack_1", "pred_sbbox/strided_slice_12/stack_2"], "attr": {"shrink_axis_mask": {"i": "0"}, "begin_mask": {"i": "22"}, "ellipsis_mask": {"i": "0"}, "T": {"type": "DT_INT32"}, "Index": {"type": "DT_INT32"}, "new_axis_mask": {"i": "9"}, "end_mask": {"i": "22"}}}, {"name": "pred_sbbox/truediv_1", "op": "Mul", "input": ["pred_sbbox/mul", "ConstantFolding/pred_sbbox/truediv_1_recip"], "attr": {"T": {"type": "DT_FLOAT"}}}, {"name": "pred_sbbox/Tile_2", "op": "Tile", "input": ["pred_sbbox/strided_slice_12", "pred_sbbox/Tile_2/multiples"], "attr": {"T": {"type": "DT_INT32"}, "Tmultiples": {"type": "DT_INT32"}}}, {"name": "pred_sbbox/Cast", "op": "Cast", "input": ["pred_sbbox/Tile_2"], "attr": {"SrcT": {"type": "DT_INT32"}, "DstT": {"type": "DT_FLOAT"}, "Truncate": {"b": false}}}, {"name": "pred_sbbox/add", "op": "AddV2", "input": ["pred_sbbox/Sigmoid", "pred_sbbox/Cast"], "attr": {"T": {"type": "DT_FLOAT"}}}, {"name": "pred_sbbox/truediv", "op": "RealDiv", "input": ["pred_sbbox/add", "pred_sbbox/Cast_1"], "attr": {"T": {"type": "DT_FLOAT"}}}, {"name": "pred_sbbox/concat_1", "op": "ConcatV2", "input": ["pred_sbbox/truediv", "pred_sbbox/truediv_1", "pred_sbbox/concat_1/axis"], "attr": {"Tidx": {"type": "DT_INT32"}, "T": {"type": "DT_FLOAT"}, "N": {"i": "2"}}}, {"name": "pred_sbbox/concat_2", "op": "ConcatV2", "input": ["pred_sbbox/concat_1", "pred_sbbox/Sigmoid_1", "pred_sbbox/Sigmoid_2", "pred_sbbox/concat_2/axis"], "attr": {"N": {"i": "3"}, "Tidx": {"type": "DT_INT32"}, "T": {"type": "DT_FLOAT"}}}], "library": {}, "versions": {}}, "weightsManifest": [{"paths": ["group1-shard1of1.bin"], "weights": [{"name": "pred_lbbox/strided_slice_4/stack", "shape": [5], "dtype": "int32"}, {"name": "pred_lbbox/strided_slice_4/stack_1", "shape": [5], "dtype": "int32"}, {"name": "pred_lbbox/strided_slice_4/stack_2", "shape": [5], "dtype": "int32"}, {"name": "pred_lbbox/range_1/start", "shape": [], "dtype": "int32"}, {"name": "pred_lbbox/range_1/delta", "shape": [], "dtype": "int32"}, {"name": "pred_lbbox/strided_slice_9/stack", "shape": [2], "dtype": "int32"}, {"name": "pred_lbbox/strided_slice_9/stack_1", "shape": [2], "dtype": "int32"}, {"name": "pred_lbbox/strided_slice_9/stack_2", "shape": [2], "dtype": "int32"}, {"name": "pred_lbbox/Tile_1/multiples/1", "shape": [], "dtype": "int32"}, {"name": "pred_lbbox/strided_slice_10/stack", "shape": [3], "dtype": "int32"}, {"name": "pred_lbbox/strided_slice_10/stack_1", "shape": [3], "dtype": "int32"}, {"name": "pred_lbbox/strided_slice_10/stack_2", "shape": [3], "dtype": "int32"}, {"name": "pred_lbbox/range/start", "shape": [], "dtype": "int32"}, {"name": "pred_lbbox/range/delta", "shape": [], "dtype": "int32"}, {"name": "pred_lbbox/strided_slice_8/stack", "shape": [2], "dtype": "int32"}, {"name": "pred_lbbox/strided_slice_8/stack_1", "shape": [2], "dtype": "int32"}, {"name": "pred_lbbox/strided_slice_8/stack_2", "shape": [2], "dtype": "int32"}, {"name": "pred_lbbox/Tile/multiples/0", "shape": [], "dtype": "int32"}, {"name": "pred_lbbox/strided_slice_11/stack", "shape": [3], "dtype": "int32"}, {"name": "pred_lbbox/strided_slice_11/stack_1", "shape": [3], "dtype": "int32"}, {"name": "pred_lbbox/strided_slice_11/stack_2", "shape": [3], "dtype": "int32"}, {"name": "pred_lbbox/concat/axis", "shape": [], "dtype": "int32"}, {"name": "pred_lbbox/strided_slice_12/stack", "shape": [5], "dtype": "int32"}, {"name": "pred_lbbox/strided_slice_12/stack_1", "shape": [5], "dtype": "int32"}, {"name": "pred_lbbox/strided_slice_12/stack_2", "shape": [5], "dtype": "int32"}, {"name": "pred_lbbox/Tile_2/multiples/1", "shape": [], "dtype": "int32"}, {"name": "pred_lbbox/Tile_2/multiples/2", "shape": [], "dtype": "int32"}, {"name": "pred_lbbox/Tile_2/multiples/3", "shape": [], "dtype": "int32"}, {"name": "pred_lbbox/Tile_2/multiples/4", "shape": [], "dtype": "int32"}, {"name": "pred_lbbox/strided_slice_3/stack", "shape": [1], "dtype": "int32"}, {"name": "pred_lbbox/strided_slice_3/stack_1", "shape": [1], "dtype": "int32"}, {"name": "pred_lbbox/strided_slice_3/stack_2", "shape": [1], "dtype": "int32"}, {"name": "pred_lbbox/strided_slice_13/stack", "shape": [1], "dtype": "int32"}, {"name": "pred_lbbox/strided_slice_13/stack_1", "shape": [1], "dtype": "int32"}, {"name": "pred_lbbox/strided_slice_13/stack_2", "shape": [1], "dtype": "int32"}, {"name": "pred_lbbox/strided_slice_5/stack", "shape": [5], "dtype": "int32"}, {"name": "pred_lbbox/strided_slice_5/stack_1", "shape": [5], "dtype": "int32"}, {"name": "pred_lbbox/strided_slice_5/stack_2", "shape": [5], "dtype": "int32"}, {"name": "pred_lbbox/mul/y", "shape": [3, 2], "dtype": "float32"}, {"name": "pred_lbbox/truediv_1/y", "shape": [], "dtype": "float32"}, {"name": "pred_lbbox/concat_1/axis", "shape": [], "dtype": "int32"}, {"name": "pred_lbbox/strided_slice_6/stack", "shape": [5], "dtype": "int32"}, {"name": "pred_lbbox/strided_slice_6/stack_1", "shape": [5], "dtype": "int32"}, {"name": "pred_lbbox/strided_slice_6/stack_2", "shape": [5], "dtype": "int32"}, {"name": "pred_lbbox/strided_slice/stack", "shape": [1], "dtype": "int32"}, {"name": "pred_lbbox/strided_slice/stack_1", "shape": [1], "dtype": "int32"}, {"name": "pred_lbbox/strided_slice/stack_2", "shape": [1], "dtype": "int32"}, {"name": "pred_lbbox/strided_slice_1/stack", "shape": [1], "dtype": "int32"}, {"name": "pred_lbbox/strided_slice_1/stack_1", "shape": [1], "dtype": "int32"}, {"name": "pred_lbbox/strided_slice_1/stack_2", "shape": [1], "dtype": "int32"}, {"name": "faster/conv7/weight", "shape": [1, 1, 128, 18], "dtype": "float32"}, {"name": "faster/conv7/bias", "shape": [18], "dtype": "float32"}, {"name": "pred_lbbox/strided_slice_2/stack", "shape": [1], "dtype": "int32"}, {"name": "pred_lbbox/strided_slice_2/stack_1", "shape": [1], "dtype": "int32"}, {"name": "pred_lbbox/strided_slice_2/stack_2", "shape": [1], "dtype": "int32"}, {"name": "pred_lbbox/Reshape/shape/3", "shape": [], "dtype": "int32"}, {"name": "pred_lbbox/Reshape/shape/4", "shape": [], "dtype": "int32"}, {"name": "pred_lbbox/strided_slice_7/stack", "shape": [5], "dtype": "int32"}, {"name": "pred_lbbox/strided_slice_7/stack_1", "shape": [5], "dtype": "int32"}, {"name": "pred_lbbox/strided_slice_7/stack_2", "shape": [5], "dtype": "int32"}, {"name": "pred_lbbox/concat_2/axis", "shape": [], "dtype": "int32"}, {"name": "pred_sbbox/strided_slice_4/stack", "shape": [5], "dtype": "int32"}, {"name": "pred_sbbox/strided_slice_4/stack_1", "shape": [5], "dtype": "int32"}, {"name": "pred_sbbox/strided_slice_4/stack_2", "shape": [5], "dtype": "int32"}, {"name": "pred_sbbox/range_1/start", "shape": [], "dtype": "int32"}, {"name": "pred_sbbox/range_1/delta", "shape": [], "dtype": "int32"}, {"name": "pred_sbbox/strided_slice_9/stack", "shape": [2], "dtype": "int32"}, {"name": "pred_sbbox/strided_slice_9/stack_1", "shape": [2], "dtype": "int32"}, {"name": "pred_sbbox/strided_slice_9/stack_2", "shape": [2], "dtype": "int32"}, {"name": "pred_sbbox/Tile_1/multiples/1", "shape": [], "dtype": "int32"}, {"name": "pred_sbbox/strided_slice_10/stack", "shape": [3], "dtype": "int32"}, {"name": "pred_sbbox/strided_slice_10/stack_1", "shape": [3], "dtype": "int32"}, {"name": "pred_sbbox/strided_slice_10/stack_2", "shape": [3], "dtype": "int32"}, {"name": "pred_sbbox/range/start", "shape": [], "dtype": "int32"}, {"name": "pred_sbbox/range/delta", "shape": [], "dtype": "int32"}, {"name": "pred_sbbox/strided_slice_8/stack", "shape": [2], "dtype": "int32"}, {"name": "pred_sbbox/strided_slice_8/stack_1", "shape": [2], "dtype": "int32"}, {"name": "pred_sbbox/strided_slice_8/stack_2", "shape": [2], "dtype": "int32"}, {"name": "pred_sbbox/Tile/multiples/0", "shape": [], "dtype": "int32"}, {"name": "pred_sbbox/strided_slice_11/stack", "shape": [3], "dtype": "int32"}, {"name": "pred_sbbox/strided_slice_11/stack_1", "shape": [3], "dtype": "int32"}, {"name": "pred_sbbox/strided_slice_11/stack_2", "shape": [3], "dtype": "int32"}, {"name": "pred_sbbox/concat/axis", "shape": [], "dtype": "int32"}, {"name": "pred_sbbox/strided_slice_12/stack", "shape": [5], "dtype": "int32"}, {"name": "pred_sbbox/strided_slice_12/stack_1", "shape": [5], "dtype": "int32"}, {"name": "pred_sbbox/strided_slice_12/stack_2", "shape": [5], "dtype": "int32"}, {"name": "pred_sbbox/Tile_2/multiples/1", "shape": [], "dtype": "int32"}, {"name": "pred_sbbox/Tile_2/multiples/2", "shape": [], "dtype": "int32"}, {"name": "pred_sbbox/Tile_2/multiples/3", "shape": [], "dtype": "int32"}, {"name": "pred_sbbox/Tile_2/multiples/4", "shape": [], "dtype": "int32"}, {"name": "pred_sbbox/strided_slice_3/stack", "shape": [1], "dtype": "int32"}, {"name": "pred_sbbox/strided_slice_3/stack_1", "shape": [1], "dtype": "int32"}, {"name": "pred_sbbox/strided_slice_3/stack_2", "shape": [1], "dtype": "int32"}, {"name": "pred_sbbox/strided_slice_13/stack", "shape": [1], "dtype": "int32"}, {"name": "pred_sbbox/strided_slice_13/stack_1", "shape": [1], "dtype": "int32"}, {"name": "pred_sbbox/strided_slice_13/stack_2", "shape": [1], "dtype": "int32"}, {"name": "pred_sbbox/strided_slice_5/stack", "shape": [5], "dtype": "int32"}, {"name": "pred_sbbox/strided_slice_5/stack_1", "shape": [5], "dtype": "int32"}, {"name": "pred_sbbox/strided_slice_5/stack_2", "shape": [5], "dtype": "int32"}, {"name": "pred_sbbox/mul/y", "shape": [3, 2], "dtype": "float32"}, {"name": "pred_sbbox/truediv_1/y", "shape": [], "dtype": "float32"}, {"name": "pred_sbbox/concat_1/axis", "shape": [], "dtype": "int32"}, {"name": "pred_sbbox/strided_slice_6/stack", "shape": [5], "dtype": "int32"}, {"name": "pred_sbbox/strided_slice_6/stack_1", "shape": [5], "dtype": "int32"}, {"name": "pred_sbbox/strided_slice_6/stack_2", "shape": [5], "dtype": "int32"}, {"name": "pred_sbbox/strided_slice/stack", "shape": [1], "dtype": "int32"}, {"name": "pred_sbbox/strided_slice/stack_1", "shape": [1], "dtype": "int32"}, {"name": "pred_sbbox/strided_slice/stack_2", "shape": [1], "dtype": "int32"}, {"name": "pred_sbbox/strided_slice_1/stack", "shape": [1], "dtype": "int32"}, {"name": "pred_sbbox/strided_slice_1/stack_1", "shape": [1], "dtype": "int32"}, {"name": "pred_sbbox/strided_slice_1/stack_2", "shape": [1], "dtype": "int32"}, {"name": "faster/upsample0/strided_slice/stack", "shape": [1], "dtype": "int32"}, {"name": "faster/upsample0/strided_slice/stack_1", "shape": [1], "dtype": "int32"}, {"name": "faster/upsample0/strided_slice/stack_2", "shape": [1], "dtype": "int32"}, {"name": "faster/upsample0/mul/y", "shape": [], "dtype": "int32"}, {"name": "faster/d6/Const", "shape": [4, 2], "dtype": "int32"}, {"name": "faster/upsample0/strided_slice_1/stack", "shape": [1], "dtype": "int32"}, {"name": "faster/upsample0/strided_slice_1/stack_1", "shape": [1], "dtype": "int32"}, {"name": "faster/upsample0/strided_slice_1/stack_2", "shape": [1], "dtype": "int32"}, {"name": "faster/upsample0/mul_1/y", "shape": [], "dtype": "int32"}, {"name": "faster/conv0/Const", "shape": [4, 2], "dtype": "int32"}, {"name": "faster/d2/Const", "shape": [4, 2], "dtype": "int32"}, {"name": "faster/d3/Const", "shape": [4, 2], "dtype": "int32"}, {"name": "faster/d5/Const", "shape": [4, 2], "dtype": "int32"}, {"name": "faster/concat/axis", "shape": [], "dtype": "int32"}, {"name": "conv6/weight", "shape": [1, 1, 96, 18], "dtype": "float32"}, {"name": "conv6/bias", "shape": [18], "dtype": "float32"}, {"name": "pred_sbbox/strided_slice_2/stack", "shape": [1], "dtype": "int32"}, {"name": "pred_sbbox/strided_slice_2/stack_1", "shape": [1], "dtype": "int32"}, {"name": "pred_sbbox/strided_slice_2/stack_2", "shape": [1], "dtype": "int32"}, {"name": "pred_sbbox/Reshape/shape/3", "shape": [], "dtype": "int32"}, {"name": "pred_sbbox/Reshape/shape/4", "shape": [], "dtype": "int32"}, {"name": "pred_sbbox/strided_slice_7/stack", "shape": [5], "dtype": "int32"}, {"name": "pred_sbbox/strided_slice_7/stack_1", "shape": [5], "dtype": "int32"}, {"name": "pred_sbbox/strided_slice_7/stack_2", "shape": [5], "dtype": "int32"}, {"name": "pred_sbbox/concat_2/axis", "shape": [], "dtype": "int32"}, {"name": "faster/conv0/Conv2D_weights", "shape": [3, 3, 3, 8], "dtype": "float32"}, {"name": "faster/conv0/Conv2D_bn_offset", "shape": [8], "dtype": "float32"}, {"name": "faster/d1/conv1/Conv2D_weights", "shape": [1, 1, 8, 8], "dtype": "float32"}, {"name": "faster/d1/conv1/Conv2D_bn_offset", "shape": [8], "dtype": "float32"}, {"name": "faster/d1/conv2_1_weights", "shape": [3, 3, 8, 1], "dtype": "float32"}, {"name": "faster/d1/conv2_1_bn_offset", "shape": [8], "dtype": "float32"}, {"name": "faster/d1/conv3/Conv2D_weights", "shape": [1, 1, 8, 4], "dtype": "float32"}, {"name": "faster/d1/conv3/Conv2D_bn_offset", "shape": [4], "dtype": "float32"}, {"name": "faster/res1/deepwise1/conv1/Conv2D_weights", "shape": [1, 1, 4, 8], "dtype": "float32"}, {"name": "faster/res1/deepwise1/conv1/Conv2D_bn_offset", "shape": [8], "dtype": "float32"}, {"name": "faster/res1/deepwise1/conv2_1_weights", "shape": [3, 3, 8, 1], "dtype": "float32"}, {"name": "faster/res1/deepwise1/conv2_1_bn_offset", "shape": [8], "dtype": "float32"}, {"name": "faster/res1/deepwise1/conv3/Conv2D_weights", "shape": [1, 1, 8, 4], "dtype": "float32"}, {"name": "faster/res1/deepwise1/conv3/Conv2D_bn_offset", "shape": [4], "dtype": "float32"}, {"name": "faster/d2/conv1/Conv2D_weights", "shape": [1, 1, 4, 24], "dtype": "float32"}, {"name": "faster/d2/conv1/Conv2D_bn_offset", "shape": [24], "dtype": "float32"}, {"name": "faster/d2/conv2_1_weights", "shape": [3, 3, 24, 1], "dtype": "float32"}, {"name": "faster/d2/conv2_1_bn_offset", "shape": [24], "dtype": "float32"}, {"name": "faster/d2/conv3/Conv2D_weights", "shape": [1, 1, 24, 8], "dtype": "float32"}, {"name": "faster/d2/conv3/Conv2D_bn_offset", "shape": [8], "dtype": "float32"}, {"name": "faster/res2_0/deepwise1/conv1/Conv2D_weights", "shape": [1, 1, 8, 32], "dtype": "float32"}, {"name": "faster/res2_0/deepwise1/conv1/Conv2D_bn_offset", "shape": [32], "dtype": "float32"}, {"name": "faster/res2_0/deepwise1/conv2_1_weights", "shape": [3, 3, 32, 1], "dtype": "float32"}, {"name": "faster/res2_0/deepwise1/conv2_1_bn_offset", "shape": [32], "dtype": "float32"}, {"name": "faster/res2_0/deepwise1/conv3/Conv2D_weights", "shape": [1, 1, 32, 8], "dtype": "float32"}, {"name": "faster/res2_0/deepwise1/conv3/Conv2D_bn_offset", "shape": [8], "dtype": "float32"}, {"name": "faster/res2_1/deepwise1/conv1/Conv2D_weights", "shape": [1, 1, 8, 32], "dtype": "float32"}, {"name": "faster/res2_1/deepwise1/conv1/Conv2D_bn_offset", "shape": [32], "dtype": "float32"}, {"name": "faster/res2_1/deepwise1/conv2_1_weights", "shape": [3, 3, 32, 1], "dtype": "float32"}, {"name": "faster/res2_1/deepwise1/conv2_1_bn_offset", "shape": [32], "dtype": "float32"}, {"name": "faster/res2_1/deepwise1/conv3/Conv2D_weights", "shape": [1, 1, 32, 8], "dtype": "float32"}, {"name": "faster/res2_1/deepwise1/conv3/Conv2D_bn_offset", "shape": [8], "dtype": "float32"}, {"name": "faster/d3/conv1/Conv2D_weights", "shape": [1, 1, 8, 32], "dtype": "float32"}, {"name": "faster/d3/conv1/Conv2D_bn_offset", "shape": [32], "dtype": "float32"}, {"name": "faster/d3/conv2_1_weights", "shape": [3, 3, 32, 1], "dtype": "float32"}, {"name": "faster/d3/conv2_1_bn_offset", "shape": [32], "dtype": "float32"}, {"name": "faster/d3/conv3/Conv2D_weights", "shape": [1, 1, 32, 8], "dtype": "float32"}, {"name": "faster/d3/conv3/Conv2D_bn_offset", "shape": [8], "dtype": "float32"}, {"name": "faster/res3_0/deepwise1/conv1/Conv2D_weights", "shape": [1, 1, 8, 48], "dtype": "float32"}, {"name": "faster/res3_0/deepwise1/conv1/Conv2D_bn_offset", "shape": [48], "dtype": "float32"}, {"name": "faster/res3_0/deepwise1/conv2_1_weights", "shape": [3, 3, 48, 1], "dtype": "float32"}, {"name": "faster/res3_0/deepwise1/conv2_1_bn_offset", "shape": [48], "dtype": "float32"}, {"name": "faster/res3_0/deepwise1/conv3/Conv2D_weights", "shape": [1, 1, 48, 8], "dtype": "float32"}, {"name": "faster/res3_0/deepwise1/conv3/Conv2D_bn_offset", "shape": [8], "dtype": "float32"}, {"name": "faster/res3_1/deepwise1/conv1/Conv2D_weights", "shape": [1, 1, 8, 48], "dtype": "float32"}, {"name": "faster/res3_1/deepwise1/conv1/Conv2D_bn_offset", "shape": [48], "dtype": "float32"}, {"name": "faster/res3_1/deepwise1/conv2_1_weights", "shape": [3, 3, 48, 1], "dtype": "float32"}, {"name": "faster/res3_1/deepwise1/conv2_1_bn_offset", "shape": [48], "dtype": "float32"}, {"name": "faster/res3_1/deepwise1/conv3/Conv2D_weights", "shape": [1, 1, 48, 8], "dtype": "float32"}, {"name": "faster/res3_1/deepwise1/conv3/Conv2D_bn_offset", "shape": [8], "dtype": "float32"}, {"name": "faster/d4/conv1/Conv2D_weights", "shape": [1, 1, 8, 48], "dtype": "float32"}, {"name": "faster/d4/conv1/Conv2D_bn_offset", "shape": [48], "dtype": "float32"}, {"name": "faster/d4/conv2_1_weights", "shape": [3, 3, 48, 1], "dtype": "float32"}, {"name": "faster/d4/conv2_1_bn_offset", "shape": [48], "dtype": "float32"}, {"name": "faster/d4/conv3/Conv2D_weights", "shape": [1, 1, 48, 16], "dtype": "float32"}, {"name": "faster/d4/conv3/Conv2D_bn_offset", "shape": [16], "dtype": "float32"}, {"name": "faster/res4_0/deepwise1/conv1/Conv2D_weights", "shape": [1, 1, 16, 96], "dtype": "float32"}, {"name": "faster/res4_0/deepwise1/conv1/Conv2D_bn_offset", "shape": [96], "dtype": "float32"}, {"name": "faster/res4_0/deepwise1/conv2_1_weights", "shape": [3, 3, 96, 1], "dtype": "float32"}, {"name": "faster/res4_0/deepwise1/conv2_1_bn_offset", "shape": [96], "dtype": "float32"}, {"name": "faster/res4_0/deepwise1/conv3/Conv2D_weights", "shape": [1, 1, 96, 16], "dtype": "float32"}, {"name": "faster/res4_0/deepwise1/conv3/Conv2D_bn_offset", "shape": [16], "dtype": "float32"}, {"name": "faster/res4_1/deepwise1/conv1/Conv2D_weights", "shape": [1, 1, 16, 96], "dtype": "float32"}, {"name": "faster/res4_1/deepwise1/conv1/Conv2D_bn_offset", "shape": [96], "dtype": "float32"}, {"name": "faster/res4_1/deepwise1/conv2_1_weights", "shape": [3, 3, 96, 1], "dtype": "float32"}, {"name": "faster/res4_1/deepwise1/conv2_1_bn_offset", "shape": [96], "dtype": "float32"}, {"name": "faster/res4_1/deepwise1/conv3/Conv2D_weights", "shape": [1, 1, 96, 16], "dtype": "float32"}, {"name": "faster/res4_1/deepwise1/conv3/Conv2D_bn_offset", "shape": [16], "dtype": "float32"}, {"name": "faster/res4_2/deepwise1/conv1/Conv2D_weights", "shape": [1, 1, 16, 96], "dtype": "float32"}, {"name": "faster/res4_2/deepwise1/conv1/Conv2D_bn_offset", "shape": [96], "dtype": "float32"}, {"name": "faster/res4_2/deepwise1/conv2_1_weights", "shape": [3, 3, 96, 1], "dtype": "float32"}, {"name": "faster/res4_2/deepwise1/conv2_1_bn_offset", "shape": [96], "dtype": "float32"}, {"name": "faster/res4_2/deepwise1/conv3/Conv2D_weights", "shape": [1, 1, 96, 16], "dtype": "float32"}, {"name": "faster/res4_2/deepwise1/conv3/Conv2D_bn_offset", "shape": [16], "dtype": "float32"}, {"name": "faster/res4_3/deepwise1/conv1/Conv2D_weights", "shape": [1, 1, 16, 96], "dtype": "float32"}, {"name": "faster/res4_3/deepwise1/conv1/Conv2D_bn_offset", "shape": [96], "dtype": "float32"}, {"name": "faster/res4_3/deepwise1/conv2_1_weights", "shape": [3, 3, 96, 1], "dtype": "float32"}, {"name": "faster/res4_3/deepwise1/conv2_1_bn_offset", "shape": [96], "dtype": "float32"}, {"name": "faster/res4_3/deepwise1/conv3/Conv2D_weights", "shape": [1, 1, 96, 16], "dtype": "float32"}, {"name": "faster/res4_3/deepwise1/conv3/Conv2D_bn_offset", "shape": [16], "dtype": "float32"}, {"name": "faster/d5/conv1/Conv2D_weights", "shape": [1, 1, 16, 96], "dtype": "float32"}, {"name": "faster/d5/conv1/Conv2D_bn_offset", "shape": [96], "dtype": "float32"}, {"name": "faster/d5/conv2_1_weights", "shape": [3, 3, 96, 1], "dtype": "float32"}, {"name": "faster/d5/conv2_1_bn_offset", "shape": [96], "dtype": "float32"}, {"name": "faster/d5/conv3/Conv2D_weights", "shape": [1, 1, 96, 24], "dtype": "float32"}, {"name": "faster/d5/conv3/Conv2D_bn_offset", "shape": [24], "dtype": "float32"}, {"name": "faster/res5_0/deepwise1/conv1/Conv2D_weights", "shape": [1, 1, 24, 136], "dtype": "float32"}, {"name": "faster/res5_0/deepwise1/conv1/Conv2D_bn_offset", "shape": [136], "dtype": "float32"}, {"name": "faster/res5_0/deepwise1/conv2_1_weights", "shape": [3, 3, 136, 1], "dtype": "float32"}, {"name": "faster/res5_0/deepwise1/conv2_1_bn_offset", "shape": [136], "dtype": "float32"}, {"name": "faster/res5_0/deepwise1/conv3/Conv2D_weights", "shape": [1, 1, 136, 24], "dtype": "float32"}, {"name": "faster/res5_0/deepwise1/conv3/Conv2D_bn_offset", "shape": [24], "dtype": "float32"}, {"name": "faster/res5_1/deepwise1/conv1/Conv2D_weights", "shape": [1, 1, 24, 136], "dtype": "float32"}, {"name": "faster/res5_1/deepwise1/conv1/Conv2D_bn_offset", "shape": [136], "dtype": "float32"}, {"name": "faster/res5_1/deepwise1/conv2_1_weights", "shape": [3, 3, 136, 1], "dtype": "float32"}, {"name": "faster/res5_1/deepwise1/conv2_1_bn_offset", "shape": [136], "dtype": "float32"}, {"name": "faster/res5_1/deepwise1/conv3/Conv2D_weights", "shape": [1, 1, 136, 24], "dtype": "float32"}, {"name": "faster/res5_1/deepwise1/conv3/Conv2D_bn_offset", "shape": [24], "dtype": "float32"}, {"name": "faster/res5_2/deepwise1/conv1/Conv2D_weights", "shape": [1, 1, 24, 136], "dtype": "float32"}, {"name": "faster/res5_2/deepwise1/conv1/Conv2D_bn_offset", "shape": [136], "dtype": "float32"}, {"name": "faster/res5_2/deepwise1/conv2_1_weights", "shape": [3, 3, 136, 1], "dtype": "float32"}, {"name": "faster/res5_2/deepwise1/conv2_1_bn_offset", "shape": [136], "dtype": "float32"}, {"name": "faster/res5_2/deepwise1/conv3/Conv2D_weights", "shape": [1, 1, 136, 24], "dtype": "float32"}, {"name": "faster/res5_2/deepwise1/conv3/Conv2D_bn_offset", "shape": [24], "dtype": "float32"}, {"name": "faster/res5_3/deepwise1/conv1/Conv2D_weights", "shape": [1, 1, 24, 136], "dtype": "float32"}, {"name": "faster/res5_3/deepwise1/conv1/Conv2D_bn_offset", "shape": [136], "dtype": "float32"}, {"name": "faster/res5_3/deepwise1/conv2_1_weights", "shape": [3, 3, 136, 1], "dtype": "float32"}, {"name": "faster/res5_3/deepwise1/conv2_1_bn_offset", "shape": [136], "dtype": "float32"}, {"name": "faster/res5_3/deepwise1/conv3/Conv2D_weights", "shape": [1, 1, 136, 24], "dtype": "float32"}, {"name": "faster/res5_3/deepwise1/conv3/Conv2D_bn_offset", "shape": [24], "dtype": "float32"}, {"name": "faster/conv2/Conv2D_weights", "shape": [1, 1, 24, 136], "dtype": "float32"}, {"name": "faster/conv2/Conv2D_bn_offset", "shape": [136], "dtype": "float32"}, {"name": "faster/d6/conv2_1_weights", "shape": [3, 3, 136, 1], "dtype": "float32"}, {"name": "faster/d6/conv2_1_bn_offset", "shape": [136], "dtype": "float32"}, {"name": "faster/d6/conv3/Conv2D_weights", "shape": [1, 1, 136, 48], "dtype": "float32"}, {"name": "faster/d6/conv3/Conv2D_bn_offset", "shape": [48], "dtype": "float32"}, {"name": "faster/res6_0/deepwise1/conv1/Conv2D_weights", "shape": [1, 1, 48, 224], "dtype": "float32"}, {"name": "faster/res6_0/deepwise1/conv1/Conv2D_bn_offset", "shape": [224], "dtype": "float32"}, {"name": "faster/res6_0/deepwise1/conv2_1_weights", "shape": [3, 3, 224, 1], "dtype": "float32"}, {"name": "faster/res6_0/deepwise1/conv2_1_bn_offset", "shape": [224], "dtype": "float32"}, {"name": "faster/res6_0/deepwise1/conv3/Conv2D_weights", "shape": [1, 1, 224, 48], "dtype": "float32"}, {"name": "faster/res6_0/deepwise1/conv3/Conv2D_bn_offset", "shape": [48], "dtype": "float32"}, {"name": "faster/res6_1/deepwise1/conv1/Conv2D_weights", "shape": [1, 1, 48, 224], "dtype": "float32"}, {"name": "faster/res6_1/deepwise1/conv1/Conv2D_bn_offset", "shape": [224], "dtype": "float32"}, {"name": "faster/res6_1/deepwise1/conv2_1_weights", "shape": [3, 3, 224, 1], "dtype": "float32"}, {"name": "faster/res6_1/deepwise1/conv2_1_bn_offset", "shape": [224], "dtype": "float32"}, {"name": "faster/res6_1/deepwise1/conv3/Conv2D_weights", "shape": [1, 1, 224, 48], "dtype": "float32"}, {"name": "faster/res6_1/deepwise1/conv3/Conv2D_bn_offset", "shape": [48], "dtype": "float32"}, {"name": "faster/res6_2/deepwise1/conv1/Conv2D_weights", "shape": [1, 1, 48, 224], "dtype": "float32"}, {"name": "faster/res6_2/deepwise1/conv1/Conv2D_bn_offset", "shape": [224], "dtype": "float32"}, {"name": "faster/res6_2/deepwise1/conv2_1_weights", "shape": [3, 3, 224, 1], "dtype": "float32"}, {"name": "faster/res6_2/deepwise1/conv2_1_bn_offset", "shape": [224], "dtype": "float32"}, {"name": "faster/res6_2/deepwise1/conv3/Conv2D_weights", "shape": [1, 1, 224, 48], "dtype": "float32"}, {"name": "faster/res6_2/deepwise1/conv3/Conv2D_bn_offset", "shape": [48], "dtype": "float32"}, {"name": "faster/res6_3/deepwise1/conv1/Conv2D_weights", "shape": [1, 1, 48, 224], "dtype": "float32"}, {"name": "faster/res6_3/deepwise1/conv1/Conv2D_bn_offset", "shape": [224], "dtype": "float32"}, {"name": "faster/res6_3/deepwise1/conv2_1_weights", "shape": [3, 3, 224, 1], "dtype": "float32"}, {"name": "faster/res6_3/deepwise1/conv2_1_bn_offset", "shape": [224], "dtype": "float32"}, {"name": "faster/res6_3/deepwise1/conv3/Conv2D_weights", "shape": [1, 1, 224, 48], "dtype": "float32"}, {"name": "faster/res6_3/deepwise1/conv3/Conv2D_bn_offset", "shape": [48], "dtype": "float32"}, {"name": "faster/res6_4/deepwise1/conv1/Conv2D_weights", "shape": [1, 1, 48, 224], "dtype": "float32"}, {"name": "faster/res6_4/deepwise1/conv1/Conv2D_bn_offset", "shape": [224], "dtype": "float32"}, {"name": "faster/res6_4/deepwise1/conv2_1_weights", "shape": [3, 3, 224, 1], "dtype": "float32"}, {"name": "faster/res6_4/deepwise1/conv2_1_bn_offset", "shape": [224], "dtype": "float32"}, {"name": "faster/res6_4/deepwise1/conv3/Conv2D_weights", "shape": [1, 1, 224, 48], "dtype": "float32"}, {"name": "faster/res6_4/deepwise1/conv3/Conv2D_bn_offset", "shape": [48], "dtype": "float32"}, {"name": "faster/conv3/Conv2D_weights", "shape": [1, 1, 48, 96], "dtype": "float32"}, {"name": "faster/conv3/Conv2D_bn_offset", "shape": [96], "dtype": "float32"}, {"name": "faster/d7/conv2_1_weights", "shape": [5, 5, 96, 1], "dtype": "float32"}, {"name": "faster/d7/conv2_1_bn_offset", "shape": [96], "dtype": "float32"}, {"name": "faster/d7/conv3/Conv2D_weights", "shape": [1, 1, 96, 128], "dtype": "float32"}, {"name": "faster/d7/conv3/Conv2D_bn_offset", "shape": [128], "dtype": "float32"}, {"name": "faster/d8/conv2_1_weights", "shape": [5, 5, 128, 1], "dtype": "float32"}, {"name": "faster/d8/conv2_1_bn_offset", "shape": [128], "dtype": "float32"}, {"name": "conv5/Conv2D_weights", "shape": [1, 1, 232, 96], "dtype": "float32"}, {"name": "conv5/Conv2D_bn_offset", "shape": [96], "dtype": "float32"}, {"name": "faster/d8/conv3/Conv2D_weights", "shape": [1, 1, 128, 128], "dtype": "float32"}, {"name": "faster/d8/conv3/Conv2D_bn_offset", "shape": [128], "dtype": "float32"}, {"name": "d9/conv2_1_weights", "shape": [5, 5, 96, 1], "dtype": "float32"}, {"name": "d9/conv2_1_bn_offset", "shape": [96], "dtype": "float32"}, {"name": "d9/conv3/Conv2D_weights", "shape": [1, 1, 96, 96], "dtype": "float32"}, {"name": "d9/conv3/Conv2D_bn_offset", "shape": [96], "dtype": "float32"}, {"name": "d10/conv2_1_weights", "shape": [5, 5, 96, 1], "dtype": "float32"}, {"name": "d10/conv2_1_bn_offset", "shape": [96], "dtype": "float32"}, {"name": "d10/conv3/Conv2D_weights", "shape": [1, 1, 96, 96], "dtype": "float32"}, {"name": "d10/conv3/Conv2D_bn_offset", "shape": [96], "dtype": "float32"}]}]}